developpement/MNIST/weights/mnist_net.pth (torch, 185061 bytes, 10 tensors)

conv1.weight f4 [8, 1, 5, 5]
000000 92 32 3d be 0d de 34 3c 29 12 83 3b 44 ac bc 3d
       -0.18476322 0.011039269 0.0039999676 0.092125446
000010 96 fb bf 3c 33 70 1f bd 64 6c 8c bd 38 c6 84 bd
       0.023435395 -0.03892536 -0.06856611 -0.0648312
000020 79 fa 54 be 3c 39 4f be f3 db 3d 3e 45 0a 6d 3d
       -0.20798673 -0.20236677 0.18540935 0.057871122
000030 65 8f e3 3d 11 92 94 bd 0b b4 39 be f9 a7 a3 3c
       0.11111335 -0.072544225 -0.18135087 0.019977557
000040 d1 82 e6 bd 27 6c 21 be 0c ba 29 be 40 a2 5b 3d
       -0.1125542 -0.15763913 -0.16574878 0.05362153
000050 cf 4d 33 be 0a a4 32 3e d8 8c 7e 3d 27 91 aa bd
       -0.1751015 0.17445388 0.062146038 -0.08328467
000060 a2 8f 87 3d 4c 47 4b 3e 3f 61 6b bc c0 e7 66 bd
       0.06619193 0.19851416 -0.014366447 -0.056373358
000070 33 7a 3c bd 73 ba b5 bd b0 38 10 be d2 95 64 3d
       -0.046014976 -0.08873453 -0.14084125 0.055806942
000080 cb 90 29 3e 09 8f 2e 3e 07 24 2f 3e 35 68 a4 3d
       0.1655914 0.17046751 0.17103587 0.080276884
000090 6d b7 34 3e 66 0b 17 bd 1b 93 1b 3d 71 86 94 bd
       0.17648096 -0.036876105 0.037982088 -0.07252205
0000a0 a1 6b 26 3e 3b c6 0d 3d f5 f7 3e be 88 12 27 bc
       0.16251995 0.034612875 -0.18649276 -0.010197289
0000b0 70 31 0d bd 6e ac fe bd b7 f6 44 3d 7d 48 28 be
       -0.034470975 -0.12435232 0.048086848 -0.16433902
0000c0 14 be bc 3d c9 d7 05 3e 93 0e 41 3d 0b cb cb 3d
       0.09215942 0.13070597 0.04713304 0.09950837
0000d0 c6 a8 b1 bd b5 c5 7e 3d 4d 77 b2 3c 35 9b 50 3e
       -0.08674769 0.062200267 0.021785403 0.20371707
0000e0 92 3c c8 3d 1f 48 fd 3d 77 38 7c 3c df 1c f7 3d
       0.09777178 0.12367272 0.015394322 0.120660536
0000f0 49 80 49 3d 16 a4 51 3e ae 6e 4d 3e ec 0a 8b 3d
       0.049194608 0.2047275 0.20061752 0.067891926
000100 39 a6 8b bd 71 78 09 be d0 c6 8c bd c8 4f 1c be
       -0.06818814 -0.13424851 -0.06873858 -0.15264809
000110 4c 76 1b 3e b0 af e9 3d 08 45 04 be c0 73 0c bd
       0.15181845 0.11410463 -0.12916958 -0.034290075
000120 52 a4 2e be 0a d9 6d bb 43 6f bd 3d c4 5d 14 3c
       -0.1705487 -0.0036292695 0.09249737 0.009055559
000130 af 15 e4 bd 28 ed d9 3d 5f 6e ed bd 59 a2 da bd
       -0.11136948 0.10640937 -0.11593317 -0.106754966
000140 1c 82 91 3d 9d 99 17 3e 25 8b cd 3c 50 e3 9e bc
       0.071048945 0.14804693 0.025090763 -0.0193955
000150 43 8e 39 3e 30 74 11 bd 90 61 c3 bd cb 9f 8c 3c
       0.18120675 -0.035511196 -0.09540093 0.017166039
000160 51 bd 8b bd 73 0a 32 3d ce f4 99 bd 05 23 a0 bb
       -0.068232186 0.043466996 -0.07517396 -0.004886987
000170 be f4 db 3d cb fa 0b 3e 68 d8 4f bd bd 68 96 3d
       0.1074004 0.13669889 -0.05074349 0.07344196
000180 24 a0 b3 3d 8a 1e 79 3d 54 0f 14 bb da 32 42 be
       0.08770779 0.06082014 -0.0022592144 -0.18964711
000190 0d bb d0 3d 61 45 22 be be 8a f0 bd 94 bc 62 3d
       0.10191927 -0.15846778 -0.11745213 0.055355623
0001a0 1c 8d e0 3c 0b ff c3 3c 4b 76 78 bd 78 c6 ba bd
       0.027411036 0.023925325 -0.060659688 -0.09119886
0001b0 e4 4a ca bd 24 4a b7 bd 30 f1 3d be a1 8e c2 3d
       -0.098775655 -0.08949688 -0.18549037 0.094998606
0001c0 f9 fa 36 bb a8 27 87 bd db ec c8 3d a9 05 02 bd
       -0.0027920587 -0.06599361 0.098108016 -0.03174368
0001d0 11 00 b6 bd 83 68 fe bd 0d 53 05 3e 8f 5f b6 3d
       -0.088867314 -0.12422278 0.13019963 0.08904945
0001e0 f5 f5 f7 bb 89 cb 4c be 54 7d 95 bd b2 8d 10 be
       -0.007567162 -0.19999518 -0.07299295 -0.14116552
0001f0 e3 7c 8a 3c 6f fb 37 bd 6a c9 23 be 9b 9b 0c be
       0.016905254 -0.04491752 -0.15994802 -0.13731234
000200 53 02 80 bd e5 93 06 3e e7 8e 25 be 0f d2 62 be
       -0.06250443 0.13142355 -0.16167794 -0.22150443
000210 ed 82 de bc 54 78 b9 bd f6 a0 14 be b4 a5 08 3d
       -0.02716204 -0.09056154 -0.14514527 0.03336115
000220 86 d2 22 3e ab b9 46 be 7a b7 be 3d 9a c2 1f 3e
       0.15900621 -0.19406764 0.09312339 0.15601578
000230 99 20 aa bd 7f 07 f9 bd 6d 2d 9d 39 10 b8 a8 bd
       -0.08306999 -0.12159633 0.00029979218 -0.08238232
000240 13 e3 26 be 2c f8 c6 bd 9f da 54 be 46 64 1b be
       -0.1629756 -0.09715304 -0.20786522 -0.1517497
000250 e4 83 fc bb ed 17 77 bd 9d 5e 8b bd 66 cf 57 3d
       -0.0077061523 -0.06032555 -0.068051554 0.052688025
000260 d9 84 60 be 96 d3 c1 bd 30 f1 00 bd a9 79 1a bb
       -0.21925677 -0.09464185 -0.031480014 -0.002357105
000270 65 ad e5 3d f3 64 6d be 0b 0c 1e be 13 54 55 3d
       0.11214713 -0.2318304 -0.15434282 0.052082133
000280 12 28 a5 3d 4e af b3 bd 43 47 63 be f1 a4 6a be
       0.080642834 -0.08773671 -0.22195153 -0.22914483
000290 47 60 38 3c 12 4b 0e be 1a 6b 46 be e1 d4 c6 bd
       0.011253423 -0.13895825 -0.19376794 -0.09708572
0002a0 58 ee d2 bc 03 72 3b be 95 7a 67 bc 94 c3 76 3d
       -0.025748417 -0.18305211 -0.014128347 0.06024511
0002b0 1e 0c e0 bd 1c 34 f6 bd 76 8e 88 bd 12 0c 04 be
       -0.10939811 -0.12021658 -0.06667797 -0.1289523
0002c0 dd c2 c9 bd b2 1e 16 be 8a 15 01 3e e9 3b 8a bd
       -0.0985162 -0.14660147 0.12605873 -0.06749708
0002d0 95 72 e5 bd ef 27 0a be e0 11 05 be 10 e7 17 3e
       -0.112034954 -0.13491796 -0.129951 0.14834237
0002e0 61 8c 22 3e 29 5d a1 3c 2d f1 e6 3d 1e 01 53 be
       0.15873863 0.019697743 0.112764694 -0.20605895
0002f0 9c 53 04 be fb 58 06 3e 6f ee 34 be 2a fd bb 3d
       -0.1292252 0.13119881 -0.1766908 0.091791466
000300 cb 31 81 bd 12 54 89 bc 27 de 0b be fe 81 bc 3c
       -0.063083254 -0.01676372 -0.13658963 0.023011204
000310 3c ca b1 bc a2 ea ca bd ef fc f0 3d 70 ec 08 3e
       -0.021702878 -0.09908034 0.11766993 0.13371444

conv1.bias f4 [8]
000000 d3 b6 27 bd 29 b7 47 3e e3 07 a5 bd 83 24 41 3e
       -0.04094584 0.19503464 -0.08058145 0.18861584
000010 a4 c2 00 bd 16 8b c8 3d a7 6f ef bd 95 d7 dd bd
       -0.031435624 0.097921535 -0.11691218 -0.10832135

conv2.weight f4 [16, 8, 5, 5]
000000 91 3a 0b 3d 50 0e 0b bd 7c a3 8b bd 43 3f 5b 3c
       0.0339914 -0.033949196 -0.068182915 0.013381782
000010 92 a2 0f bd 2a a6 3b bd 38 9d c7 bc c3 61 5b 3d
       -0.03506715 -0.045812763 -0.02436696 0.05356003
000020 a3 b9 1d 3d 17 bf ed 3c a2 95 1b bd 61 c9 d5 3c
       0.038507115 0.029021783 -0.037984498 0.026097002
000030 6e eb 04 bd e5 65 46 bd 71 aa d1 3c 23 67 68 3d
       -0.032451086 -0.048437018 0.025593968 0.056738984
000040 01 57 81 3d 74 7f fa 3c 46 5d 59 bd eb 0e 26 3d
       0.06315423 0.030578353 -0.053067468 0.04054157
000050 c7 56 63 bc 9d 42 37 3c 29 48 56 3d 37 a8 5e bd
       -0.01387567 0.011185315 0.05231491 -0.05435964
000060 ef 12 0a 3c 6b 43 82 3d 1d 13 7f 3d b9 a8 b7 bc
       0.008427366 0.06360515 0.062274087 -0.02241932
000070 d8 63 58 bc cf 48 38 3d 01 bd 63 bd 08 9f 92 3d
       -0.013207398 0.04499131 -0.05560017 0.07159239
000080 30 14 74 3c c1 7f ee bc f7 67 2e bd f7 b9 02 bd
       0.014897391 -0.029113652 -0.042579617 -0.03191563
000090 90 1d 95 bb b7 a0 6d 3d fa a6 05 3d 82 ab 38 3c
       -0.0045506433 0.058014598 0.032629944 0.011271359
0000a0 8e cb 96 3c 1f ff 30 bd 71 a0 91 bd 9e 23 f9 bb
       0.01840761 -0.043212052 -0.0711068 -0.007603123
0000b0 c0 7c d9 bb e1 fb 89 3d ed 5c 57 ba eb 04 ca bc
       -0.006637186 0.06737495 -0.0008215446 -0.024660548
0000c0 78 61 39 bd 91 07 bf 3c 25 2e 72 bd d0 7a 1b bb
       -0.04525897 0.023319038 -0.059126038 -0.0023724325
0000d0 4f 27 d2 3c d7 32 47 3d a4 d2 3d 3d bd f6 7c bd
       0.02565351 0.04863247 0.04634346 -0.061758745
0000e0 f8 80 b4 3b 20 57 93 3c 8d 21 02 3d b1 0d 8c bd
       0.0055085383 0.01798588 0.031770278 -0.06838549
0000f0 a8 ad 5d 3d fa 31 a3 bb 35 23 17 3d 61 20 26 bc
       0.05412069 -0.004980323 0.03689881 -0.010139556
000100 81 d7 73 3d 67 97 0c 3d 46 3d 17 3d 1c 49 25 bd
       0.059531692 0.034324076 0.03692367 -0.040352926
000110 c9 9c 77 bd 12 97 cd 3c 74 89 be b9 7d 1d b8 3c
       -0.060452256 0.02509645 -0.00036342035 0.022474999
000120 ea e7 ba bc a7 9c 6a 3d 9a 43 06 3d f9 14 1b 3d
       -0.022815663 0.0572783 0.032779314 0.037861798
000130 15 e3 5d 3d 68 60 06 bd 82 8a 7d 3d 5c 1b ce 3c
       0.05417164 -0.032806784 0.06189967 0.02515953
000140 d8 f2 31 bd 71 6e d9 3c 45 e6 db bc 4c f8 ad 31
       -0.043444484 0.02654192 -0.0268432 5.0631908e-09
000150 eb c2 c6 bc 8b 95 61 bd b5 5d cc bc 99 eb 56 bd
       -0.024262866 -0.055074256 -0.024947027 -0.052470777
000160 d5 32 c9 bc 3e 0a 84 bc f8 7d 25 3d 99 c9 19 3d
       -0.024560371 -0.016118165 0.040403336 0.037545774
000170 0e 48 e5 bc fb e1 b4 ba 68 1e 55 bd 94 b9 8f bd
       -0.02798846 -0.0013800258 -0.05203095 -0.07017818
000180 da 31 2a bd 9d aa 59 3d 1b ed 95 bc c9 88 53 3d
       -0.04155145 0.053141225 -0.018301537 0.05164412
000190 63 dd 41 bc 7e 2a 64 3d 53 ef 00 3d 4a cd a5 bc
       -0.011832568 0.055704586 0.031478237 -0.020239491
0001a0 e9 74 63 3a 92 a9 89 bd 29 50 d0 bb 95 23 41 bd
       0.0008676784 -0.06721796 -0.006357212 -0.047153074
0001b0 b0 ce 80 3d 6d 51 73 3d 75 90 84 3a 0e 94 f9 bc
       0.062894225 0.059403826 0.0010113852 -0.030466106
0001c0 a5 cd 39 bd 61 d3 19 bd 1c 76 03 bd cb 6a 80 bd
       -0.045362134 -0.037555102 -0.03209506 -0.06270369
0001d0 dd 70 68 bd ef f4 39 39 51 d0 56 bd fa a3 62 3d
       -0.05674826 0.0001773422 -0.05244476 0.05533216
0001e0 58 ab 5b 3d 81 75 9e 3d e4 7d 0c 3d af a7 c9 bb
       0.053630203 0.07737256 0.034299746 -0.0061540226
0001f0 f5 77 09 bc a3 8a 82 bd 28 98 31 3d 31 d6 cc bb
       -0.008390416 -0.06374099 0.043357998 -0.0062511195
000200 a8 14 51 3d 4e 8b a1 bc 7c 91 bf 3c f8 bc 34 3d
       0.05104509 -0.019719746 0.023384802 0.044125527
000210 15 69 be bb 12 55 74 3d 27 d9 7f 3d 54 9b 28 bd
       -0.0058108666 0.059651442 0.062462952 -0.041163757
000220 70 3b 9b 3c 0d 41 1c bd 9f e6 af bc 4f 8e 88 3c
       0.01894924 -0.038147975 -0.021472273 0.01666942
000230 f3 d0 16 bd 9f 81 3b bd 20 f5 70 bd d8 01 bd 3c
       -0.036820363 -0.045777913 -0.05882752 0.023072168
000240 97 53 15 3d 87 dd 74 bd 3e 6a 4f 3c 74 9a 87 3d
       0.03645667 -0.059781577 0.012659607 0.066212565
000250 f5 87 2b 3d 09 64 6e 3d 10 3f 23 bd 0b cf 55 bd
       0.041877706 0.05820087 -0.039855063 -0.052199405
000260 f7 ee 5b 3d bf 9a b0 3b 5f 9a 1f bd c6 38 3f 3d
       0.05369469 0.005389541 -0.03896558 0.046685003
000270 42 76 4a 3d 3b e9 8b 3d f0 bb e1 3c ad 9c 8d 3d
       0.049429186 0.068315946 0.027555436 0.06914649
000280 d3 68 5a bc 7b fa d8 bc 80 2f 75 3c fc 1d 83 bd
       -0.013330656 -0.026486626 0.014964938 -0.064022034
000290 90 7e 6b bd 4e 5a 3d bb c9 47 36 bc 12 f6 f5 bb
       -0.057493746 -0.0028892937 -0.011125513 -0.0075061405
0002a0 01 50 eb bc 53 83 4e bd fe ea d6 bc f9 34 fb 3c
       -0.028724672 -0.05041821 -0.0262351 0.030664908
0002b0 07 10 a8 3c 2f 68 80 3d cc a8 95 bd ca 75 2e 3c
       0.020515455 0.062698714 -0.07307586 0.0106482
0002c0 d5 92 66 3d 4a 67 a3 3c 06 0e 61 bd c1 0b ba bc
       0.056292374 0.019946713 -0.054945014 -0.022710683
0002d0 d8 26 17 3d 05 17 54 bd 78 ea de 39 ec 9e f8 3c
       0.03690228 -0.051779766 0.00042517832 0.030349217
0002e0 59 f1 5f bd 1d 5d 98 bd e7 1c 5d 3d 9d 2b 93 3d
       -0.054673526 -0.07439635 0.05398264 0.07186053
0002f0 e3 d3 dd 3c e9 4e a5 bc 1b 9b f1 38 fe 80 1c 3d
       0.027078575 -0.020179229 0.00011520666 0.038208954
000300 bf df 14 3c 2b 03 71 bc 46 35 42 bd 42 ea 6a bd
       0.009086548 -0.014710228 -0.047414087 -0.057352312
000310 d3 95 57 3d 9d fe 65 3d 45 34 b8 3c cc e4 d8 bc
       0.052633118 0.05615102 0.022485862 -0.026476286
000320 39 86 2d 3d e7 71 8b bc cc 65 22 bb 3b 40 56 bd
       0.042364333 -0.017022086 -0.0024779914 -0.05230735
000330 7d b8 c1 bc 7c 08 53 bd bb 46 46 bd 3b 58 40 bd
       -0.023647541 -0.051521763 -0.048407298 -0.046959143
000340 32 fa 94 3c b3 ab 85 3d 27 97 9b bc 2d 1e fe 3c
       0.018185709 0.0652689 -0.018992973 0.031020248
000350 08 e6 34 bd 35 aa 74 bd 46 9c 1e 3d 87 99 ac 3a
       -0.044164687 -0.059732635 0.038723253 0.0013168313
000360 94 93 76 3d d2 bd 24 3d 13 70 38 3c 29 fd 2a bd
       0.060199335 0.04022009 0.011257189 -0.04174534
000370 47 b7 6b bd 7b ab 83 bb 48 9a cf bc 87 77 96 bc
       -0.057547834 -0.004018245 -0.025342122 -0.018367542
000380 b5 ec 1e bd e3 2a 46 3d ac c4 c6 bc f6 23 61 3d
       -0.03879996 0.048380744 -0.024263702 0.054965936
000390 10 f0 a2 bc e8 a6 66 3d ac 04 09 3c 15 58 89 3d
       -0.019889861 0.056311518 0.00836293 0.067062534
0003a0 94 90 c0 bc c0 67 72 3d cf fd f6 39 06 23 a8 3c
       -0.02350644 0.059180975 0.00047109879 0.020524513
0003b0 25 d5 62 bd 93 ac 82 bd 76 8f 8d 3d 3f df 61 3d
       -0.05537905 -0.06380572 0.069121286 0.055144545
0003c0 c2 f0 27 bd 6b 6b aa bc 2a 16 87 3d bf 30 8e 3d
       -0.04100109 -0.020803174 0.06596024 0.06942891
0003d0 4b bc 7e 3c 94 29 1c 3d 65 d6 6c 3d d3 bd 84 bd
       0.015547822 0.03812559 0.05782165 -0.064815186
0003e0 9f 64 d5 bc 98 0f 60 3c f0 87 8c 3d 46 4e b0 3c
       -0.026048956 0.013675593 0.068618655 0.021521699
0003f0 3d d2 6b 3c 80 e6 fb bc 12 af a0 bb 46 92 56 3c
       0.014393386 -0.03074956 -0.0049036825 0.013096398

conv2.bias f4 [16]
000000 87 cb 33 bc ba 1a 8f bc 44 06 de bb d1 d2 e4 bc
       -0.010973818 -0.017468799 -0.0067756493 -0.027932556
000010 f1 5f 83 bd 80 43 0e bd 7a f7 53 3c d3 b6 17 bd
       -0.06414784 -0.03473234 0.012937421 -0.03703959
000020 73 92 64 3c c4 a7 8f 3d 6a 41 8d bd d2 1c 65 bb
       0.013950932 0.07014421 -0.06897242 -0.0034959805
000030 09 93 0c bc a7 67 24 bd a1 58 ec bb 4e f1 e5 3c
       -0.008579978 -0.040137913 -0.007212714 0.028069165

fc1.weight f4 [128, 256]
000000 a1 d1 28 bc 5d c2 09 3d 18 bc 39 bd 41 8e cc bc
       -0.010303886 0.033632625 -0.045345396 -0.024970176
000010 bb 0c 14 bd 73 63 ad bc 0d 3c 21 3d 15 6f 92 3c
       -0.036144953 -0.021165585 0.03936391 0.017875234
000020 2a 42 4e bc 90 c4 32 3d f9 d8 85 bd d1 4c 67 39
       -0.012589017 0.043644488 -0.06535525 0.00022058493
000030 35 cc 69 3d 33 2a 2e 3d d7 c3 2d 3c 7b 69 65 3c
       0.057079513 0.042520713 0.010605774 0.014002199
000040 55 7d f4 bb 1d 76 8b 3c ee c0 ea 3c 2d 52 aa bc
       -0.00746123 0.017024094 0.02865645 -0.020791138
000050 fb c6 ab 3b 78 f9 62 bd 3d 3d 83 bd 3f d9 11 bd
       0.005242226 -0.055413693 -0.06408165 -0.035607573
000060 ed 94 42 bc c3 72 0d bc d8 16 3f 3c 7c 71 64 3c
       -0.011876327 -0.008633318 0.011663161 0.013943072
000070 0c 98 76 bd e7 bc be bc 23 5d a9 3c d0 a3 d4 3c
       -0.060203597 -0.023283435 0.020674294 0.025957018
000080 fb e8 0a bb 5f 77 25 bc 43 d6 87 3c a0 cb d2 bc
       -0.0021195996 -0.010099261 0.01658166 -0.025731862
000090 17 ba 65 3c 33 3e 21 3d 82 21 9c bc 35 5c 4e 3c
       0.014021418 0.03936596 -0.019058947 0.012595226
0000a0 61 32 b5 3c d8 8c 6c 3d 75 5e 69 bd ad 6c c9 bc
       0.02211875 0.057751507 -0.056974847 -0.024587953
0000b0 2f 04 48 bd 71 23 c5 3b 33 87 d0 bc 29 20 6e 3d
       -0.048832115 0.006016188 -0.025455093 0.05813614
0000c0 97 c2 31 3d 95 f4 64 bd 74 2a 25 3d b7 40 c0 bc
       0.043398466 -0.055897314 0.04032369 -0.023468358
0000d0 cc 7f 1d bd 8c 42 9d 3b 35 3d 84 3c 85 8f da 3c
       -0.038451955 0.004799193 0.016142467 0.026679764
0000e0 dd 7b 75 bc 62 bb 69 3d 02 9e 59 3d b5 e9 af 3c
       -0.014983145 0.057063468 0.053129204 0.021473745
0000f0 26 1a 45 3d 36 01 1e 3c 4c 5b 50 bd 70 13 ae bc
       0.04812064 0.009643843 -0.050868317 -0.021249503
000100 0f dc 58 bc f4 b3 a4 3c 62 a6 34 3d af ec bd 39
       -0.01323606 0.02010534 0.044103988 0.00036225232
000110 50 d7 0b bd a8 5d 21 bd 17 e3 0a 3c 68 54 3e bd
       -0.034140885 -0.03939596 0.008476994 -0.046467215
000120 4e d8 00 bd 35 88 25 bd c1 09 14 3d e7 fe 01 bd
       -0.031456284 -0.0404131 0.036142115 -0.031737234
000130 38 be 48 3c 1f c7 09 3d ec fe 83 ba 51 7c 37 3d
       0.012252383 0.033637162 -0.001007048 0.04479629
000140 c6 01 4e 3a c3 95 52 bc 9c 81 3d 3c 3a 26 fc 3c
       0.00078585406 -0.012853089 0.011566546 0.030779947
000150 65 1e 66 3d 81 3d ed 3b df ec f6 3c d4 5f 3d bc
       0.05618133 0.007239998 0.030142246 -0.011558492
000160 3f 57 19 3d cf 05 0e bc 1c 85 c4 bc 58 d7 62 bb
       0.03743672 -0.008668377 -0.023989253 -0.0034613218
000170 71 69 93 bc e5 0f a6 3c 01 11 58 3c f0 15 32 3d
       -0.017994614 0.020271251 0.013187648 0.043477952
000180 81 4a 9e bc 15 44 23 3d bb 05 da 3c 7c 8b 94 3c
       -0.019322636 0.03985985 0.02661406 0.018132918
000190 3b 48 81 3d 65 72 12 3b 9d 28 8b 3c 3a 82 4c bd
       0.06312605 0.0022346016 0.01698714 -0.04992888
0001a0 dc ba 75 bc 10 53 2a 3d 55 38 3d 3d 82 c5 78 bd
       -0.014998164 0.04158312 0.0461963 -0.060735233
0001b0 7f 34 1b bd 3d d2 c2 3c 68 00 98 bc 1f 26 72 bd
       -0.03789186 0.02378189 -0.018554881 -0.059118386
0001c0 12 9f 5d bd 47 8d 30 3d c4 23 69 3d be 66 0a 3d
       -0.05410678 0.043103483 0.056918874 0.03378939
0001d0 1a 07 62 bb 2c 15 58 bc 02 29 00 3c 99 6e 6a 3d
       -0.0034489096 -0.0131886415 0.007822277 0.05723438
0001e0 8b b9 63 bd 93 97 31 bd c6 13 06 3d e5 71 24 bd
       -0.05559687 -0.043357443 0.0327337 -0.04014768
0001f0 0c 8a 51 bd 13 3d c4 bc b4 4c e6 3b 0f 4d 6b 3d
       -0.051157042 -0.023954904 0.0070281867 0.057446536
000200 2c d4 62 3d a9 3f 27 3c 9a b3 99 3c 76 81 c3 bc
       0.055378124 0.010208049 0.018762399 -0.023865443
000210 82 f3 6a 3c 7c 46 73 3d be e3 b7 ba 99 52 46 3d
       0.014340283 0.05939339 -0.0014029664 0.048418615
000220 c0 86 a4 bc c5 69 81 bd c8 3e 2a bc ab f5 0d bd
       -0.020083785 -0.06319002 -0.010390945 -0.034658115
000230 0e dd 3d 3d 44 9c 26 3a fe 84 6c bc 9d 97 01 3d
       0.046353392 0.0006355683 -0.014436005 0.03163873
000240 fb 92 72 3c 2c 60 73 bc 46 ae 75 3c 7b c6 64 bd
       0.014805551 -0.014854472 0.014995163 -0.05585335
000250 3b dc 60 bc 37 1c 6b 3d 26 ae 3f 3d 69 61 5c 3d
       -0.013724382 0.057399955 0.04679694 0.053803835
000260 3e 9c 1a bc cb aa 94 3c c2 23 5d bd 45 6b 6b bd
       -0.009436665 0.018147847 -0.05398918 -0.057475347
000270 05 6f 20 3d c6 92 09 3c e4 98 e0 3c 32 13 19 bd
       0.039168376 0.00839681 0.027416654 -0.03737182
000280 95 b4 6c 3d ab b7 16 bc fe 33 28 bc 8a 63 e7 bc
       0.057789404 -0.009199063 -0.010266302 -0.028245706
000290 f1 48 db 3c 52 18 e7 bc 46 c4 64 3d 6a 80 2d 3d
       0.02676818 -0.028209839 0.055851243 0.042358793
0002a0 c1 85 62 bc bc b0 89 bb 37 5b 42 3c 69 aa 37 3c
       -0.013825835 -0.0042019766 0.011862568 0.011210063
0002b0 2d 4e a5 3c 8e bb 72 bc 76 a3 27 bc 9c 22 18 bc
       0.020178879 -0.014815224 -0.010231843 -0.009285595
0002c0 bc 4f e1 3c 6a db 4f 3c f2 d5 84 3d ba e2 45 3d
       0.02750384 0.01268659 0.06486119 0.048311926
0002d0 82 57 6c bd 6d 03 b4 bc 35 21 6a bb b1 94 1b 3d
       -0.05770064 -0.02197429 -0.003572536 0.0379836
0002e0 26 8b 4f bb 20 ed 1a 3d e2 06 ce bb 74 ee 15 3d
       -0.0031668632 0.037823796 -0.0062874416 0.03660436
0002f0 ea 51 b1 bc 3e 64 01 3d 28 50 3e bd 00 2b 68 3c
       -0.021645505 0.03158974 -0.04646316 0.014170408
000300 d1 69 71 3d 9a 95 05 3d 6c 1b 8a bd 35 a2 0f 3c
       0.058938805 0.032613374 -0.067435116 0.0087667005
000310 4b ca be 3b 45 1b 7d 3c cd e7 6d bd 44 a7 fb bc
       0.005822455 0.015448396 -0.05808239 -0.030719407
000320 f8 d0 8d bc bf bd a0 bc 7d 66 b5 3c 82 53 7f 3d
       -0.017311558 -0.019621728 0.022143597 0.0623355
000330 1e ff b2 bc f8 46 13 3d e5 a8 4f bd 80 8b 79 3d
       -0.021850165 0.035956353 -0.05069818 0.060924053
000340 3a 60 5f 3d 8c 01 9a bc 71 50 24 bd ca 0d 3f 3d
       0.05453513 -0.018799566 -0.040115777 0.04664401
000350 17 fa 8f bb 63 fa bc bb 79 84 57 3d a2 f0 75 3d
       -0.0043938267 -0.005767153 0.05261657 0.06004394
000360 38 92 23 bd bb f8 54 3c c4 04 49 bd 2c e3 51 3c
       -0.039934367 0.012998755 -0.04907681 0.01281051
000370 56 e0 28 3d 4d f4 d8 bb a5 42 c3 3c 3e 25 33 bd
       0.04122957 -0.00662092 0.02383549 -0.04373669
000380 4c ce 64 bd b5 c6 7b 3d ba a3 04 bd 2e ad 64 bd
       -0.055860803 0.0614688 -0.032382704 -0.05582922
000390 aa a4 c3 3c 39 b1 1a bd a9 4c 5e bd a3 4b 4e 3d
       0.023882229 -0.03776667 -0.054272328 0.0503651
0003a0 c7 f1 1a 3d d1 eb 71 3d 4c f9 1c 3d 91 09 e8 bb
       0.037828233 0.059062783 0.038323686 -0.0070812185
0003b0 48 6e 79 3c 6c 80 66 3d 43 91 79 b9 de 08 58 3d
       0.015224047 0.056274816 -0.00023800605 0.05274283
0003c0 3d 0f 89 3c a0 a6 d0 3c 67 ed 6b 3b be e9 8c bc
       0.016730899 0.025470078 0.0035999657 -0.0172013
0003d0 ac 9f 67 bd 65 b3 99 bc 7d f4 94 bc 06 98 34 3d
       -0.05654876 -0.0187623 -0.018182987 0.044090293
0003e0 39 38 cb 3c 07 10 94 3c 70 a4 95 3c d5 be b4 3c
       0.024807082 0.018074049 0.018266886 0.022063652
0003f0 5d 90 6f 3d 09 a8 18 3d 98 d2 28 3c ff da 70 3d
       0.058487285 0.037269626 0.010304116 0.0588026

fc1.bias f4 [128]
000000 e6 d6 a8 bc 07 76 a8 bb 45 f1 0d 3d 14 21 c4 3c
       -0.020610284 -0.005141023 0.03465392 0.023941554
000010 9c 96 c8 bc 3c d3 68 bd 5c d2 0e bd 38 84 23 3d
       -0.024485879 -0.056842074 -0.034868583 0.039921016
000020 57 6a 4f bb 15 76 28 bd 6f 71 6d bc 36 aa 08 bd
       -0.0031649077 -0.041128237 -0.014492377 -0.03336545
000030 52 7d 6f 3c 7e 6e 83 3d 14 68 e7 3c cc 6b 71 3c
       0.014617281 0.06417559 0.02824787 0.014735173
000040 5d 29 8e 3c 8c 93 b7 bc c7 ad b0 3c f2 af d2 3c
       0.017353708 -0.022409223 0.021567238 0.025718663
000050 70 d4 c5 bc 0e d9 6f bd 2c a0 4c bd 3f 44 3f bd
       -0.02414915 -0.05855661 -0.04995744 -0.046695944
000060 f0 aa 98 bc 14 e5 66 3c 19 a5 03 3d 0b 29 65 3d
       -0.018636197 0.014092702 0.03213987 0.055947345
000070 d5 52 58 bd 49 78 c6 3c 5c 76 79 3d bd 99 30 3d
       -0.05281337 0.024227278 0.060903892 0.043115366
000080 c5 c1 0d 3d 96 a6 4a bd ec f5 3d bd 66 f1 17 3d
       0.03460862 -0.049475275 -0.046377108 0.03709545
000090 d4 2c 9c 3c bb 4a 23 bd cc 85 3f 3d 24 87 8c 3b
       0.019064344 -0.03986619 0.046758458 0.004288571
0000a0 d8 0f 4f 3d 5d 82 e1 bc 4f d0 50 3d 8a b2 2e bd
       0.05055222 -0.027527982 0.05097991 -0.042650737
0000b0 c6 8d 3e bb cf 1f 8a bc d0 42 57 bd 8f 6e 36 3d
       -0.0029076203 -0.01686087 -0.05255395 0.04453903
0000c0 62 23 13 bd 7b b4 4a bd ae 00 a2 bc 40 d5 45 bb
       -0.035922416 -0.049488526 -0.019775715 -0.0030186921
0000d0 03 32 e4 3c 78 9e 55 bd fb be c9 bc 72 3d 4d 3d
       0.027855879 -0.05215308 -0.0246272 0.050107427
0000e0 96 bd 42 3d 9b 89 af bc 2b 7e 55 bd 38 1d 46 3d
       0.047544084 -0.02142792 -0.052122276 0.04836771
0000f0 43 9e 30 3c a5 c9 bd 3c 67 09 88 3c b9 22 fa 3c
       0.01077992 0.02316744 0.016606046 0.030534135
000100 6e d1 e6 bc dc b1 2d 3d df 05 9a 3c cf d5 50 bd
       -0.028176036 0.042405948 0.018801628 -0.050985154
000110 15 7d bc bc 07 11 77 3a 91 d0 6b bc 9c 72 18 3d
       -0.023008863 0.00094248395 -0.014392988 0.037218675
000120 62 81 5d bd 5a 18 d5 39 10 27 03 bc 35 8f 39 bc
       -0.054078467 0.0004064467 -0.008004919 -0.011325647
000130 68 ce 0e bd 55 c6 8b bc 1c ba 26 3d 53 54 96 3c
       -0.034864813 -0.017062346 0.04070483 0.018350756
000140 ef e8 36 bd 7a 5a d6 bb 50 22 69 3c 5b f5 b9 bb
       -0.044655737 -0.0065415474 0.014229372 -0.0056750006
000150 bb 5d 6b bd e7 65 57 3d d2 51 5a 3d 27 35 84 3d
       -0.057462435 0.052587416 0.053300686 0.064554505
000160 02 a3 0a bd d7 da b2 3c 06 f1 23 3d 85 e0 e0 bc
       -0.033846863 0.021832867 0.04002478 -0.02745081
000170 8f 35 41 3d 24 32 2e 3c 30 38 06 3d 20 60 5c bc
       0.047170218 0.010632072 0.03276843 -0.013450652
000180 30 c5 b1 3c 00 53 16 3c 88 cb 5d 3d 57 e1 08 bd
       0.021700472 0.009175062 0.05414918 -0.033418026
000190 a4 bd 5d bd a4 3c d2 3c 4a 87 25 bc 2f e7 d6 bc
       -0.054135934 0.025663681 -0.010103056 -0.026233284
0001a0 41 3d 08 3d 49 52 97 3c 7d 2b ea 3c bf b6 40 3d
       0.03326154 0.018471854 0.02858519 0.04704928
0001b0 ab a8 53 3d 59 48 7d bd 38 22 d0 bc 09 2b 10 3d
       0.051674526 -0.061836574 -0.025406942 0.03519729
0001c0 44 bb 69 3d 9f 77 4f 3d ae 8f 68 bd 06 94 46 3d
       0.057063356 0.05065119 -0.05677765 0.04848101
0001d0 e4 f0 22 bd c2 bc 95 bc 60 c6 45 bd 40 d3 b1 3c
       -0.039780512 -0.018278483 -0.04828489 0.021707177
0001e0 82 6b 8a 3b ba 21 9b bc 79 44 ff bc e0 3b 09 3d
       0.0042242417 -0.01893698 -0.03116058 0.033504367
0001f0 c7 37 63 3d 47 7e 01 3c c0 22 58 3d 8b 23 47 bd
       0.055473115 0.007903642 0.052767515 -0.04861788

fc2.weight f4 [64, 128]
000000 d1 51 b8 3d 2b 70 60 bd 54 2e 98 3c e5 7c b9 ba
       0.0899998 -0.05479447 0.018576778 -0.0014151601
000010 3d 98 b3 bc e6 34 69 3d 42 81 25 3d 7d 0a 73 3d
       -0.021923179 0.056935214 0.040406473 0.059336174
000020 d7 5c 89 3d f8 80 4e 3d ac 85 1c 3d d2 d9 a9 3d
       0.06707161 0.050415963 0.038213417 0.08293499
000030 04 03 78 3b f0 04 56 3d 16 76 9c 3c 0f 75 3e 3c
       0.0037843594 0.052250803 0.019099277 0.011624589
000040 9e 15 29 3d af f8 7a bc 5d 8f 04 bd 71 f0 67 3d
       0.04128038 -0.01531808 -0.032363284 0.056625787
000050 0b 30 55 bd ad 01 84 3d 0a a0 e9 3c de 31 9f 3c
       -0.05204777 0.06445632 0.028518695 0.019432958
000060 89 b0 9d bd 1a 3c 88 3d 9f 44 8d bd 7b ed f8 bc
       -0.07699687 0.066520885 -0.06897854 -0.030386677
000070 90 f8 d5 bc fc 9e 3f bd 55 1a 85 3d a1 8d 20 3b
       -0.0261195 -0.04678248 0.06499163 0.002449848
000080 0b be 8f bd 43 70 16 bd 75 a8 42 bd d9 f8 88 bd
       -0.0701867 -0.036728155 -0.047523934 -0.06688089
000090 88 a0 75 3c a0 10 93 3d fb 47 b4 bd 55 95 84 bd
       0.014991887 0.07180905 -0.08802792 -0.06473795
0000a0 ac 86 c2 3c 21 df 42 bd 62 65 3d bc 4b 0e 8e bd
       0.023745857 -0.047576074 -0.011559816 -0.0693632
0000b0 85 d6 ae bd a8 3a 79 bc 1f 3f c1 3d 24 2c 9f bd
       -0.0853701 -0.015211739 0.094358675 -0.07772091
0000c0 b9 e3 90 bd 30 e4 b9 3c fd 0c 23 bd b4 dc fd bc
       -0.07074685 0.022691816 -0.03980731 -0.030989029
0000d0 e3 2c a3 3d 1c 33 a9 bb 7c c7 85 bd dc d3 b3 3d
       0.07967546 -0.0051635634 -0.06532189 0.08780643
0000e0 ad d1 86 bd 7c 9c 7e 3d d0 8f b1 3c de ac 81 bc
       -0.06582961 0.062160954 0.02167502 -0.0158295
0000f0 da 16 a4 3d 84 52 2e bd 66 ee 1d 3d 6c 6d 55 3c
       0.08012171 -0.04255916 0.038557433 0.0130265765
000100 a1 9c 97 3d ab 7e 9a 3b b5 1c d5 bb d7 2e a5 bd
       0.074029215 0.004714807 -0.0065036663 -0.080655746
000110 6d 87 18 bd 0a b9 d4 bb 58 7c 99 3c 9e e2 85 3d
       -0.037238527 -0.006491785 0.01873605 0.065373644
000120 2e 5e 98 3d 16 71 aa 3d 45 ee 07 bd e9 5f a9 bd
       0.07439838 0.08322351 -0.033186216 -0.082702465
000130 a6 7e a5 3d e0 3e ec 3c 47 b6 9f 3d 9f cc 37 3d
       0.08080797 0.028838575 0.077984385 0.044872876
000140 78 ee a6 bb 5a a5 88 bd be 50 11 3d 3c 3b 90 bd
       -0.0050943457 -0.06672163 0.035477392 -0.07042548
000150 03 7b 0c bd fb a6 86 bd 4b 4d af bd b5 38 19 3b
       -0.034297 -0.06574818 -0.08559664 0.0023379747
000160 a3 84 63 3d 74 df a6 bd 1a 01 5a 3d 47 2d 84 bd
       0.055546414 -0.08148089 0.053223707 -0.064539485
000170 4b 07 7a 3d 20 47 81 3d 6d 98 8b bd 30 7c 64 3d
       0.06104211 0.06312394 -0.06816182 0.055782497
000180 0f fa 65 3b 28 c7 2d bd 35 bf 27 3d 73 52 55 3d
       0.0035091673 -0.04242626 0.040953834 0.052080583
000190 c4 13 5a 3c f3 43 1e 3d 9f 76 68 3b 9e 15 99 bd
       0.013310377 0.03863902 0.0035471094 -0.07474826
0001a0 d7 2c 97 bd ea f7 d2 3c 37 22 be bc 1e 40 91 3d
       -0.073815994 0.02575298 -0.023209674 0.070923075
0001b0 41 e2 d0 39 1f bb 91 bd 8f c5 98 bd 9b 1c a0 bb
       0.00039841424 -0.07115769 -0.07459556 -0.0048862225
0001c0 fe ff b5 bc be 40 20 bd da 72 10 3d f3 e3 85 3d
       -0.022216793 -0.039124243 0.03526578 0.065376185
0001d0 33 7e d6 bc c3 27 12 3d 61 c0 61 bd c2 71 13 bd
       -0.026183223 0.03568245 -0.055115107 -0.03599716
0001e0 03 87 8a bd e6 a6 39 3d e2 d8 60 bc eb fd d0 3b
       -0.06764033 0.045325182 -0.013723584 0.0063779256
0001f0 4a 8a d3 bc f2 f2 93 3d 69 a4 40 3d c4 60 64 3d
       -0.025822777 0.072240725 0.047031794 0.055756345
000200 1b 78 d7 3c 99 f4 8c bd bf 26 a4 3d ff 88 a4 3d
       0.026302388 -0.06882591 0.08015203 0.080339424
000210 d6 66 91 bd 67 8c a0 3d 8d 3b e6 3c 43 08 be bc
       -0.070996925 0.078392796 0.028104568 -0.023197299
000220 c5 5c 67 ba 6e e0 8a bc 6d ec 79 bd 0e 14 bb 3c
       -0.00088257744 -0.01695272 -0.06101649 0.022836711
000230 7a 8b 1a 3d b8 39 a2 3d da 58 33 bd d7 d0 2d 3d
       0.03773067 0.07921165 -0.043785907 0.042435493
000240 77 51 12 3a f7 38 07 bd ee 67 ed 3c e2 7e ca bc
       0.0005581597 -0.03301331 0.028980222 -0.024718706
000250 bb a8 f1 bc 9c 6b 6c 3d 8d b4 8d bd 73 5c 4f 3c
       -0.029499402 0.05771981 -0.06919203 0.012656319
000260 ad 73 58 3d 89 a4 84 3d d9 d6 35 bd 33 d1 63 bd
       0.052844692 0.06476695 -0.044394348 -0.05561943
000270 95 5c e2 bc 7a f1 6c bd df 91 c3 3c b2 01 49 bd
       -0.027632037 -0.057847477 0.023873268 -0.049073882
000280 98 89 6c bd fa 7d 17 bb c9 7f 5e bd ef 6a d0 3c
       -0.057748407 -0.002311586 -0.054321084 0.025441615
000290 a6 50 2c 3c 35 b4 80 3d 1d fb 43 3d bc 85 77 3d
       0.010517275 0.06284372 0.047846902 0.060430273
0002a0 0e 41 5d bd 4b 42 88 3d 8d 78 91 bb 2e 7e 1b bb
       -0.05401712 0.066532694 -0.0044394196 -0.0023726332
0002b0 31 ea e5 bc 45 5a 87 3d 30 a6 65 bd b8 f1 84 bc
       -0.028065773 0.066090144 -0.056066692 -0.016228542
0002c0 bd bd 79 bd 31 f7 50 bd 71 0e d8 bc 37 ba 02 3d
       -0.060971964 -0.05101699 -0.026374074 0.03191587
0002d0 19 00 26 bc 1d 87 08 3d 55 6a 48 3d 3c 3a 7e bd
       -0.010131859 0.03333198 0.04892953 -0.062067255
0002e0 6d 83 ad 3d ce 18 40 bd d8 cc 9d 3c b3 2e ad bc
       0.08472333 -0.046898656 0.019262716 -0.021140432
0002f0 86 69 57 bd 61 90 49 bd 0b a3 9a bd c6 44 19 3d
       -0.05259087 -0.049209956 -0.07550629 0.037419103
000300 0c a4 14 3c ce 5c 5e 3d 70 a1 f4 bc d5 a2 60 bd
       0.009072315 0.054287724 -0.029862136 -0.05484279
000310 5a a5 35 bd af 41 1a bd 11 9d 58 bd 56 2f 8b bd
       -0.044347145 -0.037660297 -0.052884165 -0.06796138
000320 77 e4 96 bd 3c 30 12 3c 79 fc 89 bd f8 27 39 bd
       -0.07367795 0.008922633 -0.067376085 -0.045204133
000330 02 29 22 bd ab 11 79 3d db 1e 89 bd 89 6d 6a bd
       -0.03958989 0.060807865 -0.06695338 -0.057233367
000340 01 97 35 3d b4 2c 95 3d fe fa c3 3c b7 37 21 bd
       0.04433346 0.07283917 0.023923393 -0.039359774
000350 e4 88 8d 3c e7 2b 65 3c c7 c2 59 3c 76 5c 9d 3d
       0.017277189 0.013987518 0.013291067 0.07683651
000360 c5 0d 9f 3d 75 56 cc 3b ae 5a b2 3d 7a ce d9 bc
       0.07766298 0.0062358924 0.08708702 -0.026587714
000370 c7 a4 4f 3d 47 27 7a bd 81 e9 69 3d df 99 3e 3c
       0.050694253 -0.061072614 0.057107452 0.011633365
000380 40 22 e4 bb ef 9e a9 3d f6 45 5c 3d bf 7f b9 3d
       -0.0069620907 0.08282267 0.053777657 0.09057569
000390 c2 50 a6 bd a4 d6 a0 3d b3 ae 86 bc 5f 0f 2a 3c
       -0.08120872 0.078534395 -0.016440725 0.010379641
0003a0 3e 18 4b 3b b4 c4 39 3d d2 6a 8e 3d 32 bd 83 3d
       0.0030989791 0.045353606 0.06953968 0.064325705
0003b0 6e 49 28 bc dd a5 89 bd 15 04 8d bd f7 c7 62 3d
       -0.010271413 -0.06721089 -0.06885544 0.055366483
0003c0 64 99 46 bd 78 0a 22 3d 35 ae e4 bb 19 90 90 3d
       -0.04848613 0.039560765 -0.006978775 0.070587344
0003d0 bb 9e ab 3c 49 d0 d0 3b a7 41 a1 3c 60 e0 48 bd
       0.020949712 0.006372486 0.019684626 -0.049042106
0003e0 80 8e 35 bd 04 7f 4d bd b2 4a 0b 3c 32 6b 4b bc
       -0.04432535 -0.05016996 0.0085016955 -0.012415694
0003f0 fb 2f 5b bd a7 37 27 3d be 05 ae bc 29 6c 2c bd
       -0.053512555 0.04082456 -0.021242972 -0.042095337

fc2.bias f4 [64]
000000 8f fb 0a 3d 9f 19 8e bc db 0c 7f 3d ab 83 6e bc
       0.03393131 -0.017346201 0.06226812 -0.014557759
000010 ec 3c 59 3d f5 85 d7 bc ce 19 ef 3c f3 a4 f3 3c
       0.053036615 -0.026308993 0.02918711 0.02974174
000020 df c1 a0 3d 42 09 78 3d a5 46 87 3d 88 26 ad 3c
       0.07849478 0.060555704 0.06605271 0.021136537
000030 29 50 0b bd fe c1 85 bd 52 84 65 3d 40 e9 80 3d
       -0.034011994 -0.06531142 0.056034394 0.06294489
000040 b8 21 58 3d 5d 82 23 bd 90 ef 94 bd 6b 9e 5c bd
       0.05276653 -0.039919246 -0.072722554 -0.053862017
000050 c6 2e 69 3c b3 1f b3 bd b9 e6 9a 3d b4 82 60 bd
       0.014232343 -0.087462805 0.07563538 -0.05481215
000060 47 f6 63 3d 13 10 95 3c c4 2b 80 3d be d1 e0 bc
       0.05565479 0.018196141 0.06258348 -0.027443763
000070 35 a3 8e bd 21 a2 8f bc a5 72 a8 3d 30 d3 9b bd
       -0.06964723 -0.017533364 0.08224992 -0.0760864
000080 5d 7e 31 bd 72 c3 72 3d 07 f9 5f bc 55 dd ad bd
       -0.0433334 0.059268422 -0.013670213 -0.08489481
000090 cf c0 32 bd fa ea 0c bd 47 cb 90 3d 54 94 4c bd
       -0.043640908 -0.03440378 0.07070022 -0.049946144
0000a0 36 8c 1f 3d ca 1b d4 3c 13 57 01 bb 0a 30 1d bd
       0.038952075 0.025892157 -0.0019735738 -0.03837589
0000b0 bc e5 a6 3c 3d a9 c4 3d 26 36 9d bd e2 52 b1 3d
       0.020373218 0.09602592 -0.076763436 0.08658387
0000c0 e9 a6 a6 bd bd ac 4f bd 99 ca f2 3c a8 31 a4 3d
       -0.08137304 -0.050701845 0.029637622 0.08017284
0000d0 87 90 f1 3c 15 b0 a5 3d 3b c2 de bc 9e e8 b3 bd
       0.029487861 0.080902256 -0.027192226 -0.087846026
0000e0 c7 94 6c 3d 77 42 05 3d 17 fe b7 bc 28 b1 9b bc
       0.057759073 0.03253409 -0.022460027 -0.019005373
0000f0 07 e2 00 bb 0c 94 58 3d d2 c8 81 bd bd d6 b2 3d
       -0.0019665973 0.052875564 -0.063371316 0.08732364

fc3.weight f4 [10, 64]
000000 02 34 e3 bd a1 8e b8 3c 8d f8 a5 bd 3e 8e 28 3d
       -0.11093904 0.022528948 -0.08104048 0.041151278
000010 95 0b da bd b2 3f 3e 3d 95 39 a5 bd 24 a7 85 bd
       -0.1064674 0.046447463 -0.080676235 -0.0652602
000020 fe 9c 5f bd 5e 9a c1 3d 92 ab 9e bd 0a b1 d7 bd
       -0.05459308 0.09453271 -0.07747568 -0.105318144
000030 e5 db e4 bd 84 0c da 3d 5b d5 ac bd 3d ec 73 bc
       -0.11174754 0.106469184 -0.08439132 -0.014887867
000040 0b 40 e4 bd 8e 88 a7 3d 02 cc ce 3d 50 61 de 3c
       -0.11145028 0.081803426 0.10097505 0.027146012
000050 04 89 0f bd a2 0c 74 bd 25 05 58 bd ae 75 e7 bb
       -0.035042778 -0.05958236 -0.05273928 -0.007063589
000060 de bf f0 3d ae 51 3b 3d 84 73 12 bd df f1 c2 bd
       0.11755346 0.045732193 -0.035754696 -0.095187895
000070 e1 cc 4c 3d 5e 93 ce bc 7d 1b f1 3b 65 4d 61 3d
       0.050000075 -0.025216755 0.007358013 0.05500545
000080 6f 10 fe bc 5e 32 e2 bd 9d 7c d3 3d 44 fe 8b 3d
       -0.031013696 -0.11044763 0.103265025 0.06835607
000090 60 0c 9a 3d 64 f3 a8 bd 2f f2 ae 3d 2d 13 7e bc
       0.075218916 -0.08249548 0.085422866 -0.015507502
0000a0 dc cd d6 3d 97 a9 ab 3c 51 1d 38 3c fa 75 4b 3c
       0.10488483 0.02095489 0.011237458 0.0124182645
0000b0 46 17 d8 bd d2 f8 1b 3b 38 f6 6f 3d 7e fd b8 3c
       -0.10551314 0.0023799432 0.058584422 0.022581812
0000c0 d2 6e e9 3d 10 ed e5 bc ff 0b 44 bd ae bb d0 bd
       0.113980904 -0.028067142 -0.047863003 -0.10192047
0000d0 c5 33 bd bc c2 40 0f be 40 bc f0 3d 7e 33 86 bd
       -0.023095975 -0.13989547 0.11754656 -0.0655279
0000e0 af 8a b9 3d 4b 6b 83 bb 17 58 e6 bd f4 1b fc bd
       0.09059655 -0.004010593 -0.112472706 -0.12310019
0000f0 8a 76 f8 3b de 3a f3 3d 80 58 e6 3d 84 c3 c8 bd
       0.0075824903 0.118764624 0.11247349 -0.09802917
000100 8c c8 e6 bd 45 8f 9a 3d 1d 12 22 3d d6 d6 8e 3c
       -0.1126872 0.07546858 0.039568055 0.017436426
000110 0d fe 81 bc d0 b9 a1 bd 41 f4 f4 bc db 07 ad 3d
       -0.015868211 -0.07896769 -0.029901626 0.08448764
000120 00 f3 90 bd d7 37 ea 3d 90 d0 50 3d 91 b5 af bd
       -0.070775986 0.11436432 0.05098015 -0.08579553
000130 42 03 a9 3d 55 2e 9c bd 08 f4 0b be 95 26 2b 3e
       0.082525745 -0.07626025 -0.1366731 0.16713937
000140 2e 16 c4 3d 1e b3 76 bd fa f5 25 bd 34 c4 18 3d
       0.09574543 -0.060229413 -0.040517785 0.03729649
000150 82 cb 2f bd a5 0a 1b 3d bf 54 0c 3e a3 2f 99 bd
       -0.04291869 0.03785195 0.13704203 -0.07479789
000160 68 fe c4 bd 62 93 6d 3d 17 4e 91 bd 63 82 7f bd
       -0.09618837 0.058001883 -0.070949726 -0.062380206
000170 4b 95 5e 3b f3 65 8a 3d f4 01 82 bd 52 6a 92 3d
       0.0033963497 0.067577265 -0.06348029 0.07149185
000180 bb ab 1c bd f6 c4 9f bd 9c 0c 6e bc 4c 53 dd 3d
       -0.038249712 -0.07801239 -0.0145293735 0.10806903
000190 8e d2 98 3d 7f 40 74 bd e4 f5 74 bd 35 1d bf b5
       0.07462035 -0.05963182 -0.059804812 -1.4239109e-06
0001a0 2b 03 47 3d a6 4a 9e 3d fa a2 e4 3d ba b7 86 bd
       0.048587006 0.07729082 0.11163898 -0.06578012
0001b0 1c d1 0e be 79 71 b5 3d 34 65 80 3d 79 31 b9 bd
       -0.13946956 0.08859534 0.06269303 -0.09042639
0001c0 c0 d3 1e bd 3a 33 a9 3d 66 df 39 3d ec 14 10 3d
       -0.03877616 0.08261724 0.045379065 0.035176203
0001d0 c6 f0 de 3c bf 34 84 3d 79 c7 a7 3d bb 73 f5 bd
       0.02721442 0.06455373 0.08192343 -0.119849645
0001e0 30 34 7b 3d 89 cb 7a 3c f6 ba 2e bd 7c 93 9a 3d
       0.061329067 0.015307316 -0.04265877 0.07547662
0001f0 b4 30 ab 3d 78 e0 04 bd 58 a5 91 3d 38 06 91 bd
       0.08358899 -0.032440633 0.07111615 -0.07081264
000200 47 a9 d5 bc 35 93 93 bd 4e 6f 5b 3d ef f6 24 bb
       -0.026081694 -0.07205812 0.053572945 -0.0025171598
000210 64 a4 0b 3d 37 f7 86 3d 2b ba c4 bd a7 3e 93 bc
       0.034092322 0.06590121 -0.09605821 -0.01797421
000220 b8 71 0f bd 15 3c f0 bd f3 ab dd bd e1 1f c8 bc
       -0.03502056 -0.1173021 -0.10823812 -0.024429264
000230 77 59 3e bd 7b c1 59 3d 71 49 03 3e f5 90 ce 3d
       -0.04647204 0.053163033 0.12820984 0.10086242
000240 61 5b 2a 3d 22 9a 8f bd 9e 07 a2 3b a0 b8 b0 3d
       0.041591052 -0.070118204 0.0049447557 0.086289644
000250 71 12 df bc 95 97 bd 3d ef 60 92 bd 17 a4 dd bc
       -0.027230473 0.092574276 -0.07147395 -0.027055783
000260 b7 68 cd 3c 88 5e f3 bd bb c6 a0 ba 4d 51 d0 bd
       0.025074346 -0.11883265 -0.0012266258 -0.10171757
000270 8b 18 bb 3b bf 1f a1 bd a2 0c 83 bd e8 52 8d bd
       0.005709713 -0.07867383 -0.06398894 -0.06900579
000280 66 2f cb 3d 40 42 37 3d c1 78 d3 3c 76 ee da bd
       0.0992115 0.044740915 0.025814416 -0.10690014
000290 6b 52 dc 3c e8 31 02 bb ef 3d c0 bd 14 d5 d1 bd
       0.026894769 -0.0019866172 -0.09386813 -0.102457196
0002a0 c0 39 cc 3d 5f 53 c4 bd 6a eb a8 bd af 23 c4 bd
       0.099719524 -0.09586214 -0.08248027 -0.095771186
0002b0 c3 04 04 be fb e0 e1 bd 8c 07 24 3d f0 50 f0 bd
       -0.12892441 -0.1102924 0.04004626 -0.117341876
0002c0 04 68 d0 bc 14 5b 57 3c dc 59 20 bd ce 3c 11 be
       -0.025440224 0.013144273 -0.039148197 -0.14183351
0002d0 21 dc b3 3d d5 d9 08 bd b1 41 63 3c 85 9e 41 3c
       0.08782221 -0.033410866 0.0138706425 0.011817579
0002e0 f9 f5 77 bd 95 0e fa 3d 20 d7 83 3c 02 e4 c1 3d
       -0.060537312 0.122098126 0.01609379 0.09467317
0002f0 b7 db de 3c 85 3b 4a bc c4 24 cc 3d b6 7e b2 3d
       0.027204378 -0.012343292 0.0996795 0.087155744
000300 5d b7 da 3c 6f 92 28 bd 72 f1 35 3d 36 73 9e bd
       0.026698763 -0.041155275 0.044419713 -0.077368185
000310 57 83 71 bd 82 55 17 bc 65 ba 8b 3c 08 21 2a 3d
       -0.058963146 -0.009236695 0.017056653 0.041535407
000320 01 42 e5 bd 80 c7 fd bd 94 93 1a bc b2 7a 05 3d
       -0.1119423 -0.12391567 -0.009434599 0.032587714
000330 f4 06 e7 39 09 0a ca bd 41 54 9c bd 8d 34 51 3d
       0.00044064934 -0.09865195 -0.07633258 0.051075507
000340 7a b0 8f 3c 3d d3 95 bc 68 5f f3 3d e8 7d fb 3d
       0.017540205 -0.018289203 0.11883432 0.12279874
000350 1d f4 e3 3c 93 99 bb bd 47 70 35 bd e7 1c cd 3d
       0.027826363 -0.09160151 -0.04429653 0.10015278
000360 87 16 cd 3d 43 3a d5 bd 17 5f b4 bd 7b 19 8a bc
       0.100140624 -0.10411503 -0.088071994 -0.016857853
000370 a4 9c 89 3d 1f 21 b2 3d 70 2f db bd 80 2e f8 bd
       0.0671933 0.086977236 -0.10702407 -0.12118244
000380 96 b4 1c 3d a8 2c 21 3d f0 82 e1 bc 88 6b 60 3d
       0.038258158 0.03934923 -0.027528256 0.05479005
000390 0f 40 eb bd 1f 7b 7a 3d 00 10 36 bc dd 9e b6 3c
       -0.114868276 0.061152574 -0.011112213 0.022292549
0003a0 f1 2b 4e bc 29 b3 3e 3d 38 f7 ce bd ae f7 f6 bd
       -0.012583719 0.04655758 -0.10105747 -0.1205896
0003b0 f1 a0 1e 3d 11 ad c9 bd 00 0d b1 bc e4 82 93 3d
       0.038727704 -0.09847463 -0.021612644 0.072027
0003c0 b7 ef 69 bd fe 2f a1 bd 6c 49 dd 3c 7c 67 e3 3d
       -0.057113376 -0.07870482 0.02701255 0.111037225
0003d0 cd 75 b8 3d 1c 59 b3 bc 9d cb aa 3d 87 9d 33 bd
       0.09006844 -0.021893077 0.083396174 -0.0438514
0003e0 15 c3 97 bd 82 be 0c bd e8 e7 c1 3d f0 30 0a bc
       -0.07410256 -0.03436137 0.09468061 -0.008434519
0003f0 4c 54 e8 3d 5a cc b4 bd af 85 dd bb e0 16 dc bd
       0.11344203 -0.088280395 -0.006760321 -0.107465506

fc3.bias f4 [10]
000000 60 bb ce 3d 2d 21 87 3d cd 2a c9 3d e0 9b 81 3d
       0.10094333 0.06598125 0.09822617 0.06328559
000010 c9 a5 a6 bd 03 95 93 bd ab 7a 14 3d f4 cf 84 3d
       -0.0813709 -0.07206156 0.036249798 0.064849764
000020 d0 40 44 3d a2 89 61 bd
       0.047913373 -0.055062898
