developpement/MNIST/weights/mnist_net.pth (torch, 185061 bytes, 10 tensors)

conv1.weight f4 [8, 1, 5, 5]
000000 3f 75 c8 3b d5 aa 87 3d 8a 12 4b be 35 38 12 be
       0.0061174924 0.066243805 -0.19831291 -0.14279254
000010 b4 4f 54 be 83 e7 d8 bd 69 e5 33 3e f9 ca b5 3d
       -0.2073353 -0.10591032 0.17567982 0.088766046
000020 a6 0f 2c 3e 50 0a 19 be 19 96 19 3d c0 1b db 3d
       0.16802844 -0.1494534 0.03749666 0.10698652
000030 58 ab 4a be 68 37 fc bd 7c 92 b1 3d 3c 60 32 3e
       -0.19791925 -0.123152554 0.08670518 0.17419523
000040 02 00 4f be dc f0 f0 bd 4a 29 6e 3d 06 37 5d 3c
       -0.20214847 -0.1176469 0.058144845 0.013501888
000050 e6 4b 84 bd 22 93 be bd 0a d0 fe 3c 31 2d 45 be
       -0.06459789 -0.09305407 0.03110506 -0.1925552
000060 5c e1 ed bd 66 4e 29 be 10 11 84 bc 5f d9 04 3e
       -0.116152495 -0.16533813 -0.016121417 0.12973545
000070 a8 f8 2b 3e 7d 1b 34 3e 2a 11 df bc c9 e7 35 3d
       0.16794074 0.17588611 -0.027229864 0.0444105
000080 b6 28 d2 bd c0 fc dd 3d 89 c6 4a be 69 c1 1f 3e
       -0.10261671 0.10839224 -0.19802298 0.15601124
000090 b9 8a bb bc 0d 13 36 3e c3 b8 39 be 03 ce 43 be
       -0.022893297 0.17780705 -0.18136887 -0.19121556
0000a0 ef c4 c4 3d 54 1d fd bd 1a 02 28 3d 54 a6 73 bd
       0.096078746 -0.123591095 0.04101763 -0.059484795
0000b0 7c b6 38 3e cc 80 77 bc fc 49 4a 3d ef 6f 2f 3c
       0.18038362 -0.015106391 0.049386963 0.010707839
0000c0 90 47 7a bc 2e d6 41 3c 60 e0 0c be 55 8a 10 3e
       -0.015275851 0.01183085 -0.13757467 0.1411527
0000d0 66 a9 6c bd 46 fd 83 3d bf c4 87 3d e0 69 24 3e
       -0.05777874 0.064447924 0.06629323 0.16056013
0000e0 3e df 51 3d de 8f 4d 3e bc 74 e7 3d d3 09 d8 3c
       0.05123829 0.20074412 0.11301562 0.026371872
0000f0 3b cc a7 bb 5e 08 75 bd d6 36 3a 3d 95 6a 32 3e
       -0.0051207817 -0.059822433 0.045462452 0.1742347
000100 29 6d 13 bc 22 c7 8f bd be 59 52 be 90 ce 9f bd
       -0.008998194 -0.070204034 -0.20542046 -0.078030705
000110 55 bf 32 3d c8 3b 4e 3e 06 a8 b7 3c 52 ae 27 be
       0.0436395 0.20139992 0.022418987 -0.16375092
000120 3e 46 ac bd 9f ed a8 3c 5c fe 03 3e 61 38 3e 3e
       -0.08411835 0.020621119 0.12889999 0.18576194
000130 2d de d1 bd ab ca 5a bd 2d a9 25 bd 2b 47 30 be
       -0.10247455 -0.053415935 -0.04044454 -0.17214648
000140 b2 46 53 bd b4 af bd 3d c8 bd 17 be 75 ef 4a 3d
       -0.051581092 0.09262028 -0.1481849 0.04954477
000150 21 3d e5 3d 6d c3 17 be 69 0e 2a be a6 70 ef 3d
       0.111933 -0.14820643 -0.1660706 0.11691408
000160 89 20 33 be 86 dc 88 3d d8 c2 55 3d 12 46 6a bc
       -0.1749288 0.066826865 0.05218777 -0.014298933
000170 4c d0 05 3e 07 76 51 bd d0 09 fe bc 8e ac 8e 3d
       0.1306774 -0.05113795 -0.031010538 0.06966506
000180 bc 0c 8e bd 73 c7 0a bc 82 fe a4 3d 0a 41 b3 3d
       -0.06936023 -0.008470404 0.08056356 0.087526396
000190 af fe ff 3d 79 c8 bf 3c fd b5 87 bd 50 81 81 bc
       0.12499749 0.023411022 -0.066265084 -0.015808731
0001a0 36 e2 53 be d1 84 3f be 4c 05 ee 3c 2e c0 29 bd
       -0.20691761 -0.18703009 0.02905526 -0.041443042
0001b0 55 aa f9 3d b7 26 10 3e a8 30 b8 bd 79 30 02 bd
       0.121906914 0.14077269 -0.089936554 -0.03178451
0001c0 0e be 31 be 5f 54 f7 3a 40 ed 84 bd c0 01 2f 3e
       -0.17357656 0.0018869749 -0.06490564 0.17090511
0001d0 25 21 8c bc 2b a9 03 be 72 de a1 3d 07 f9 b6 bd
       -0.017105648 -0.12857501 0.07903756 -0.08934217
0001e0 c1 ba 28 be 42 34 95 3c ab f3 2a 3d e8 4c 0c be
       -0.16477491 0.018213395 0.041736286 -0.13701212
0001f0 4a af a1 3d df 1d 78 3d 4a dc 31 3e 46 13 dc bd
       0.07894762 0.060575362 0.1736919 -0.107458636
000200 31 d3 ac 3d 9d 37 38 3e 76 67 82 3d 14 48 e1 bd
       0.08438719 0.17989965 0.0636739 -0.11000076
000210 41 dd c3 bd 12 17 d5 3d 96 b2 c2 bd 80 0d ca bd
       -0.09563685 0.10404791 -0.09506719 -0.09865856
000220 a9 e1 0b be d6 10 6f 3b fc 01 da bd 25 a0 88 3d
       -0.13660301 0.003647854 -0.1064491 0.0667117
000230 d9 68 96 3d 00 5c 40 3d a1 ff 19 be 04 7f 2a 3e
       0.07344217 0.046962738 -0.15038921 0.16650015
000240 40 9f 99 bd d3 9c 1f be 92 c1 c5 bd b3 af ef 3d
       -0.07501078 -0.15587167 -0.09656061 0.11703434
000250 7d 46 27 be bf c0 20 be a9 df 5e 3d b4 2e 89 3c
       -0.16335483 -0.15698527 0.054412518 0.016745903
000260 8e 00 ab 3d 66 8f 54 3d f8 8b e3 3d 8d e1 64 bd
       0.08349715 0.051894568 0.11110681 -0.055879164
000270 95 b6 d5 3d 76 25 d2 3c 37 6f 5f 3d 30 cc 13 3e
       0.104352154 0.025652628 0.054549422 0.1443336
000280 c8 4e c1 bd 5d f8 d5 bd b3 12 8d 3d 61 c9 11 be
       -0.094388545 -0.10447762 0.06888332 -0.14236976
000290 df 62 01 3e 40 78 c0 bd 7b 79 2e bd d5 37 a8 bd
       0.12635373 -0.09397936 -0.04259632 -0.08213774
0002a0 da 27 bf bd ed ae e3 bd a6 dc 1d 3e 30 00 a6 bd
       -0.09333773 -0.11117349 0.15416202 -0.081055045
0002b0 e2 5c b4 bd 0b d3 fd 3a 10 36 8f bd 08 0b 7a bd
       -0.088067785 0.0019365264 -0.069927335 -0.061045676
0002c0 02 06 8b 3d 7a 3c ef 3d b8 89 0c be 6b 42 b7 bc
       0.06788255 0.11681457 -0.1372441 -0.022370538
0002d0 1e 0b 2c 3e af 56 38 bd ad 48 41 be 10 f2 30 3e
       0.16801116 -0.045004543 -0.1887538 0.1727984
0002e0 4a 6f ff bd ce d1 32 3d 7e 38 49 bd fa c6 7f bc
       -0.124723986 0.043657117 -0.04912614 -0.015611405
0002f0 30 28 93 3d 48 2c 32 3e 8e 85 33 3d 53 83 d7 3b
       0.071853995 0.17399704 0.04382854 0.0065769344
000300 a6 29 2b 3d d4 83 d2 3c a2 cb d6 bc ec 0b 9b 3d
       0.041787766 0.025697626 -0.026220147 0.07570633
000310 e1 a0 4f 3d 25 d8 96 3d 7d 61 08 3e 1c 40 12 be
       0.050690535 0.07365445 0.13318439 -0.14282268

conv1.bias f4 [8]
000000 4e 5f 04 3d 36 73 ca bc 3c ee 41 3d 71 b2 b9 3d
       0.032317452 -0.02471314 0.04734634 0.09067238
000010 f2 46 2d 3e 61 3f cf bd 51 be 46 bd 48 d6 42 be
       0.16921595 -0.101195104 -0.048521344 -0.19027054

conv2.weight f4 [16, 8, 5, 5]
000000 46 4b 94 bc ab 13 ed 3c db 35 8f bd 42 11 c2 3c
       -0.0181023 0.028940042 -0.06992694 0.02368987
000010 e9 2f 80 3d 20 60 5c 3d 41 e0 76 3c ad 80 3e bd
       0.06259138 0.05380261 0.015068115 -0.046509434
000020 4d 0f 82 3d d0 c2 d1 3c c7 be b0 bb a2 61 d6 3c
       0.06350575 0.02560559 -0.005393836 0.026169602
000030 23 2b 6c 3d 74 64 77 3d b8 99 83 3d 26 2c 3b bd
       0.057658326 0.060398534 0.06425804 -0.0456964
000040 e8 5d 85 bd 14 97 28 bd eb 6b 17 3d 0d bb 3d bd
       -0.06512052 -0.041159704 0.036968153 -0.046320964
000050 a4 06 fc bc 85 44 8e bd 1b ed 55 3b de b2 07 3d
       -0.030764885 -0.06946663 0.0032642547 0.033129565
000060 a3 03 de bb 07 13 05 3d ae cc 91 3c b9 d0 7b bd
       -0.006775336 0.03248885 0.017797794 -0.06147835
000070 f1 8f 8c bd 77 9b ee 3c d0 d0 1e bd b0 21 39 bd
       -0.06863392 0.029126866 -0.038773358 -0.045198143
000080 8e 22 f4 bc 74 cb e3 3b aa af 59 bc 0b c8 88 3d
       -0.029801633 0.0069517437 -0.0132865105 0.0667878
000090 dd 06 13 bd f8 e2 78 bc 18 07 97 bc 6f fd 97 3c
       -0.035895217 -0.015190832 -0.018436 0.018553464
0000a0 c4 e9 82 bc 40 2a 52 3d 4c 63 d7 3c 18 6f 8b 3d
       -0.015980609 0.051309824 0.026292466 0.06808299
0000b0 14 40 84 bd 42 2d da bc d2 fb f9 bc 6c bf 96 3d
       -0.064575344 -0.026632909 -0.030515585 0.073607296
0000c0 ff 75 85 3d 34 74 82 3d bf ca 85 3b 8d 62 85 3d
       0.065166466 0.0636982 0.004083007 0.06512938
0000d0 9e 32 c8 bc c6 6b 63 3d 6a 77 8d bd 43 0e c0 3d
       -0.024438199 0.055522703 -0.06907542 0.0937772
0000e0 7d a2 d0 3d b5 2e 7f 3d 61 99 09 bd 77 ab 8e 3d
       0.10187242 0.062300403 -0.03359354 0.06966298
0000f0 8e 7c f3 3c 6c 1d eb bc fa 51 d4 3c a0 a3 60 bd
       0.029722478 -0.028700553 0.025917996 -0.054843545
000100 91 68 20 bd 81 d9 53 bd 69 1d 85 3d 07 bd 87 bd
       -0.039162222 -0.0517211 0.0649975 -0.06627851
000110 53 69 a1 3c 46 c9 84 bd d0 f3 44 3d ce 74 3d bd
       0.019703543 -0.06483702 0.04808408 -0.04625397
000120 f7 f0 06 3c 1d ff 15 bd f6 9e 97 3d 7d 1d 08 3c
       0.008236161 -0.036620248 0.07403366 0.008307812
000130 1d f1 25 bd d3 b4 b4 3c 8b 89 6d bd 3f 9c 34 3d
       -0.040513147 0.02205888 -0.0579925 0.04409432
000140 bd a7 1c bc be 6c 8a bd e8 02 92 3d 4b ab 84 3d
       -0.009561476 -0.06759022 0.071294606 0.06477984
000150 aa bb 8c 3d aa 35 dd 3c 9d 67 91 bc 94 e6 76 3d
       0.068717316 0.027003128 -0.017749602 0.06027849
000160 f1 f6 9e bb 43 8a 2f bd 64 d4 6c bc 46 49 cd bc
       -0.004851215 -0.042856466 -0.014454935 -0.025059354
000170 f6 df 1e bc 3d bf 2a 3d 3d 66 0c 3d b6 3b 81 bd
       -0.009696951 0.041686285 0.03427719 -0.06310217
000180 e6 a4 b5 3c f8 88 99 bc bc 3c b4 3c 82 03 84 bd
       0.022173356 -0.01874207 0.022001617 -0.064459816
000190 fe db 6d bd 76 fd 46 3d e2 6e 02 3c 8e 9c 23 3d
       -0.05807113 0.048581563 0.007961007 0.039944224
0001a0 c2 87 ed 3a ea 8a e2 3b 66 cc cb 3b 33 6b 72 bc
       0.0018122124 0.0069135325 0.0062194346 -0.014796066
0001b0 5e 9e 23 bd 82 bd ff bc c6 b3 54 bc 96 22 84 39
       -0.039945953 -0.031218294 -0.012982314 0.0002520277
0001c0 39 2d 27 3d d5 f2 a6 bc 95 f5 3b 3d e4 f2 97 3d
       0.040814612 -0.020379463 0.045888502 0.074193746
0001d0 31 e8 d9 bc f1 b1 60 bc 26 33 48 bd 5a 48 95 3d
       -0.026599975 -0.0137143 -0.048876904 0.072891906
0001e0 71 cd 24 3c 6e 34 59 3b e9 61 a2 bb 64 49 6c 3d
       0.010058747 0.0033142823 -0.0049555195 0.05768718
0001f0 b6 8a d7 bc 8f 6f 2e bd d3 37 8e bd e7 fb 1c 3c
       -0.02631126 -0.04258686 -0.069442414 0.009581543
000200 d1 71 5f bd dc 3e 38 bd fe 89 a0 3c 45 97 40 bd
       -0.054551903 -0.044981822 0.01959705 -0.047019262
000210 ed 20 81 bd 28 7a 08 3d 8f d5 f4 3b 5f 83 5a 3d
       -0.06305108 0.033319622 0.007471747 0.05334794
000220 de 45 6d 3c 30 2e 81 3d 2c 58 11 3c 66 f8 b2 bc
       0.01448199 0.06307638 0.0088711195 -0.021846961
000230 74 1e e5 ba ba 08 d9 3b ad c3 6c 3c fd 4b f5 3b
       -0.0017480389 0.0066233547 0.01445095 0.007485865
000240 2a d6 81 3d 66 16 b7 3c 65 02 a2 3c 66 91 2e ba
       0.06339677 0.022349548 0.019776532 -0.00066592393
000250 b6 9c 04 3d 18 ce 1a bd 79 de 37 3d 1c af 30 bd
       0.032376014 -0.037794203 0.0448899 -0.043135747
000260 0c ce 68 bd 15 ea 3c 3d 66 04 dc bc 15 45 bb 3c
       -0.056837127 0.046121676 -0.026857566 0.02286009
000270 da b3 21 3c e9 9a 39 bc 73 8d eb 3c 45 29 53 bd
       0.00986954 -0.011328437 0.028753972 -0.05155303
000280 41 4c 9c 3d 91 95 f6 bc d5 3e c8 bc 60 8a 70 bd
       0.07631732 -0.030100616 -0.024444023 -0.058725715
000290 98 d5 8d bd 21 1c 65 bd bc 4b dc bb 51 9c 88 3d
       -0.069255054 -0.05593503 -0.0067228954 0.0667044
0002a0 4c b2 2a bd 94 49 54 bd af 35 24 3c aa c9 8d 3d
       -0.041673943 -0.051827982 0.010022565 0.0692323
0002b0 b9 ef 60 bd 82 29 8e bc 48 e3 2b 3c 6c a1 be 3c
       -0.054916117 -0.017353777 0.0104912 0.023270331
0002c0 5f 6d 35 bd 49 ba 20 bc 6f 1c 2a bd dd 20 4e 3d
       -0.044293758 -0.009810039 -0.041531023 0.05032431
0002d0 f4 93 b3 3c e9 f1 21 3c 21 4d 95 3d df 75 69 3d
       0.021921135 0.009884336 0.07290102 0.056997176
0002e0 c5 5b fe b9 5e 16 a8 3c fe 2c e7 3b e7 f5 fb 3c
       -0.0004851503 0.020518478 0.007054924 0.030756904
0002f0 85 e4 76 3d 49 5c bf bc 5a 02 81 bc 6b ec 27 bc
       0.060276527 -0.023359435 -0.015748192 -0.0102492375
000300 be 57 59 3c df 0d 62 bb 26 85 52 3a 2b fe de 3c
       0.013265548 -0.003449313 0.0008030705 0.027220806
000310 56 39 f8 3c 2b 62 84 bd e7 b9 81 bd 94 73 45 bd
       0.030300777 -0.064640366 -0.06334286 -0.048205927
000320 62 89 28 bd 3e 8f 4d 3d 1e c2 22 3d f7 3c 4a 3d
       -0.041146643 0.050185435 0.039735906 0.049374547
000330 5d e8 8a bd 58 ec 2b bd 31 36 2c 3b 09 06 60 bd
       -0.06782601 -0.04197344 0.0026277418 -0.054693256
000340 09 f0 9f bc 52 13 8d bc 8b f8 b7 3c a5 b9 47 3d
       -0.019523637 -0.017221127 0.022457382 0.04876103
000350 4b a6 01 bd 56 b6 1c 3d 68 48 88 bc 5e 2b 84 3d
       -0.03165273 0.038259827 -0.016636088 0.06453584
000360 61 ba 13 bd 92 37 43 bd 2d 44 12 3c 8b 02 86 bc
       -0.036066417 -0.047660418 0.008927387 -0.016358634
000370 a5 91 49 bc 70 3f d6 3c 57 3c 1f bd ff ad ab 3c
       -0.012302791 0.026153296 -0.038875904 0.020956991
000380 de a6 cf 3c e4 a7 43 bd bb ce 38 bd d4 ee e4 bc
       0.025348123 -0.047767535 -0.04511903 -0.027945913
000390 53 5c 5e 3c 8e 17 00 3d f8 05 3a bd e7 7b d5 3c
       0.0135718165 0.031272464 -0.04541585 0.026060058
0003a0 76 88 2e bb 9e 23 90 bd 5c a3 6a bc e9 08 04 3d
       -0.002663163 -0.070380434 -0.0143211745 0.03223506
0003b0 f5 6e 8e 3d 37 ae 86 3d 1f 47 e3 bc 1c 75 11 bc
       0.06954757 0.065761976 -0.027743874 -0.008878019
0003c0 b0 bc 8d 3c 6e 81 59 3d 56 70 a9 bc c7 fe 52 bd
       0.017301887 0.05310195 -0.020683449 -0.051512506
0003d0 a9 a9 6c 3d 62 61 06 3c b2 51 44 3d 02 0d 33 bd
       0.057778988 0.008201929 0.047929473 -0.043713577
0003e0 81 a2 19 bd ea 1b f3 bc 20 a6 3a 3d 99 2a 5d 3c
       -0.03750849 -0.029676396 0.045568585 0.013498926
0003f0 84 be 74 3d 12 18 fb 3c 9a cd 66 ba 30 46 7b bd
       0.059752002 0.030651126 -0.0008804441 -0.061346233

conv2.bias f4 [16]
000000 84 1b 4a bb 11 8d 27 3a 6f e9 98 3d 21 e8 9d 3d
       -0.0030839154 0.0006391565 0.07466399 0.07710291
000010 7c 56 6f bc fe fd f2 bb 4e 0e 42 bd 58 82 62 bd
       -0.014608022 -0.007415532 -0.047376923 -0.055300087
000020 7e 17 8d 3b f3 f4 27 3b 85 02 62 3c 14 ba 51 3d
       0.004305779 0.002562818 0.013794546 0.05120285
000030 df 9b a1 bb ed 38 bc bc 45 fd 1f 3c 72 b7 e4 bc
       -0.0049319114 -0.022976363 0.009764974 -0.027919505

fc1.weight f4 [128, 256]
000000 56 e3 6c 3c 60 5f ee 3b ae de 1a 3d 9e bc 3c bd
       0.014458498 0.007274553 0.03781002 -0.046078317
000010 97 9d dd 3b 55 23 20 bd fb ea 7c 3c df 80 04 3d
       0.006763171 -0.039096195 0.015436883 0.032349464
000020 23 d6 34 3d b5 06 e1 bc 16 b5 1f 3b 5d d8 2e 3d
       0.04414953 -0.027469018 0.002436941 0.04268681
000030 ac 77 a8 bc db d3 49 bd 37 23 92 3b 10 79 40 bd
       -0.020564876 -0.049274307 0.0044597643 -0.046990454
000040 70 9a 6a bd 52 d7 6c ba 1d cb 6c bd 70 0f 0a bd
       -0.05727619 -0.0009034771 -0.05781089 -0.03370613
000050 73 7a 40 3c e6 b4 18 bd bb d3 79 3d 13 b8 09 bd
       0.011747944 -0.037281893 0.060992938 -0.033622812
000060 ef 4f 1f 3d 9e 75 42 bd db 91 96 bc ee e5 ab 3c
       0.03889459 -0.04747545 -0.018380096 0.020983662
000070 e9 e4 02 bd 48 23 41 3d 05 73 e7 bc 7c ce 58 3d
       -0.031956587 0.047152787 -0.028253088 0.052931294
000080 6f 27 18 3c 6e cf a6 bc d1 87 61 3d ee 1c 9e 3c
       0.009286745 -0.020362582 0.055061165 0.019300904
000090 f0 20 5d 3d 8b 47 43 3d cb 8f 61 3d 8c 41 58 bd
       0.05398649 0.04767565 0.055068772 -0.052796885
0000a0 fa 1a 0c bd f7 6d 36 3d ed 78 08 bb d4 1c 0a 3d
       -0.034205414 0.044538464 -0.002082403 0.0337189
0000b0 e7 66 48 bb 86 aa 5f bd a2 fc 10 3d 4b b9 d7 bc
       -0.0030578913 -0.054605983 0.03539718 -0.026333472
0000c0 1f 10 46 3d 6a 39 2a 3d 47 e6 eb bb e8 ec a7 bb
       0.048355218 0.04155866 -0.007199082 -0.005124677
0000d0 44 e7 2b bc f0 70 0e 3d 55 1b 1b bd a2 92 aa bc
       -0.01049215 0.034775674 -0.037867863 -0.020821873
0000e0 af 0e 56 bd 0f 72 9f 3c 1f 8d f4 3c 89 8d 70 3b
       -0.052260097 0.019463567 0.029852448 0.0036705455
0000f0 8e ca ca bb 33 39 24 3d c3 f7 1e bd 72 be 51 bd
       -0.006188697 0.040093612 -0.038810503 -0.051207013
000100 3b 11 d5 bc f8 87 61 bd c5 5e 1b 3d ee ce 26 b9
       -0.026009193 -0.05506131 0.037932176 -0.00015908081
000110 21 c0 74 bc f6 99 42 3d a0 f7 d9 3b a1 4d a3 bc
       -0.014938385 0.04751011 0.0066518337 -0.019934477
000120 58 e2 96 3b cf 54 76 bc 68 e4 39 bd 02 ff 1d 3d
       0.004604619 -0.015034868 -0.04538384 0.038573273
000130 27 72 3c 3d d0 93 f6 bc 21 50 69 bc 35 f8 f8 3b
       0.0460073 -0.03009978 -0.014240296 0.007597948
000140 01 53 05 bd 72 9f a8 3c 6f 11 f6 3c eb b4 8c bc
       -0.03254986 0.020583842 0.03003761 -0.017176112
000150 88 52 d5 ba b8 a3 5f bc 8c 58 2f bc ae 02 2e 3c
       -0.0016275207 -0.013649873 -0.010702264 0.010620756
000160 53 26 bb 3c fe 5f 09 bd 87 53 73 3d 31 89 7e bc
       0.022845423 -0.03353881 0.05940583 -0.015535639
000170 3f bf 17 3a 9d 98 33 bc 56 4b 4d 3d 49 a3 a1 bc
       0.0005788691 -0.010961679 0.050120674 -0.01973118
000180 e8 ec f3 bc 61 db 22 bd b5 81 2e bd 40 be f2 bb
       -0.029776052 -0.039759997 -0.042604167 -0.0074079335
000190 91 72 46 3d 4e f6 1c 3d ec ae 37 3d 96 9e ed bb
       0.048449103 0.038320832 0.044844553 -0.007251571
0001a0 b4 5a dc 3c f7 b7 06 bd e1 00 a3 bb 41 24 df 3c
       0.02689872 -0.032890286 -0.00497447 0.027238967
0001b0 4a 39 5e 3c 2e 9d 14 3d ec 1e 2d bd 3d 0e 10 bc
       0.013563463 0.03628271 -0.042265818 -0.008792457
0001c0 1b 4b 38 bd cd 85 a8 3c 55 1d e9 bb 7e c0 8f 3c
       -0.0449935 0.020571614 -0.0071140924 0.017547842
0001d0 41 d3 03 bd bc 53 a7 3b d1 b4 c4 3c a6 6a 35 bd
       -0.03218389 0.0051064175 0.024012001 -0.04429116
0001e0 11 5b 51 3d d4 7f 7b 3d cb 05 0a bd a0 e2 4f 3d
       0.05111224 0.061401203 -0.03369693 0.050753236
0001f0 0e 0c 05 bd 0e 4d bd bc df 5f 3f bd be d0 ef 3b
       -0.0324822 -0.023108032 -0.04672229 0.007318585
000200 1b 12 5c bc b7 7b f6 bc 48 a1 00 3d 6c e4 02 3d
       -0.013432051 -0.030088289 0.03140381 0.03195612
000210 6b 8d 5c bd 70 7e 2d 3c bd f0 4f 3d 79 f5 cd 3c
       -0.053845804 0.010589227 0.050766695 0.025141465
000220 32 98 68 3d 24 20 3f bd b9 ec 5c 3d b8 6c e6 bb
       0.05678577 -0.04666151 0.053936694 -0.0070320033
000230 28 04 74 3d 6a a8 0d bd a8 f5 16 3d 23 91 ca 3c
       0.059574276 -0.03458444 0.03685537 0.02472741
000240 69 07 00 bd a6 38 7a ba c9 08 f6 3c eb 17 ed 3b
       -0.031257067 -0.00095451844 0.030033486 0.0072355173
000250 ea b6 58 3d b8 9b af 3c cc 94 ff 3c 2c 17 b8 3c
       0.052908815 0.021436557 0.031198882 0.022471987
000260 89 44 52 3d 9d 68 1d bd 87 b0 d7 3a 1e e0 06 3c
       0.05133489 -0.038429845 0.0016455807 0.008232145
000270 a1 c4 7e bc 5d 9d 5c 3c dc 9c ce 3c c8 3c e8 3b
       -0.01554981 0.013465253 0.02522128 0.007087324
000280 30 a3 99 3c e8 60 8e 3c fc 00 48 3c dd 49 86 bb
       0.018754572 0.017380193 0.012207266 -0.0040981607
000290 59 1d 70 bd 54 1a d4 3c 13 1f f7 3c f1 5d 49 bd
       -0.058621738 0.02589146 0.030166185 -0.049161855
0002a0 76 31 0a bc b6 59 88 bc 5a 9a 2e bd 85 80 07 3d
       -0.008434644 -0.01664434 -0.04262767 0.03308155
0002b0 fd df 65 bd a7 47 73 3d f1 1a 07 3d d6 e5 13 bd
       -0.056121815 0.059394505 0.032984678 -0.03610786
0002c0 38 5c ce 3c f5 9e 7a bd 62 ad 0c bd 4e 0e 16 3d
       0.025190458 -0.06118675 -0.03434504 0.036634736
0002d0 56 29 c1 bc 42 2c 78 ba 40 06 77 3d a9 08 53 bd
       -0.02357928 -0.0009467044 0.060308695 -0.05152193
0002e0 6c ad 40 3d 89 c0 02 bc 3a ce d0 bc 4c dd 2a 3d
       0.047040388 -0.007980474 -0.025488961 0.04171495
0002f0 2b 06 4f bb fc 82 43 3d c9 78 bf bc ce 11 23 3b
       -0.003158937 0.04773234 -0.023373025 0.0024882439
000300 e2 d6 84 bb fb 3d c9 3c de 3b 3a 3c 51 5a 29 bd
       -0.0040539363 0.024565687 0.0113668125 -0.041345898
000310 be 69 7d 3d 26 78 a2 3c f6 5f e2 3c fe 5b 6a bd
       0.06186842 0.019832682 0.027633648 -0.057216637
000320 c8 46 ae 3c 2f cd 20 3d e1 71 2b bc 7e c1 1e 3d
       0.021273986 0.03925818 -0.010464163 0.038758747
000330 6c b3 21 3d c6 53 99 3c e8 65 2a 3d fc c3 6f bd
       0.03947775 0.018716704 0.04160109 -0.058536515
000340 59 e1 4d 3d e1 1f 96 3c 37 4e 4d 3d d8 04 d4 3c
       0.050263736 0.018325748 0.05012342 0.025881216
000350 c8 fa 8f 3c cd 44 37 3d c7 cc 38 bd 66 e3 0f bd
       0.017575637 0.044743348 -0.045117166 -0.035128973
000360 fb d0 98 3b 7a 7b 6a bc b6 70 4c 3d 7a f6 4e 3d
       0.0046635843 -0.014311666 0.049912177 0.050528027
000370 4c 6e a0 bc 30 60 3c bc d6 cf b3 bc db a3 32 bd
       -0.019583844 -0.011497542 -0.02194969 -0.043613296
000380 6b 51 2f 3d f7 f5 7d 3d 91 d1 5c bb 60 07 0a 3d
       0.042802256 0.06200215 -0.0033694247 0.03369844
000390 d2 fa 40 bd f4 1e a6 bb 80 7e 1f 3d a6 78 f5 bc
       -0.0471142 -0.005069608 0.038939 -0.029964756
0003a0 ad ad ac 3c 3b 0e 39 3c 62 48 11 3d e7 7e f9 3c
       0.021078909 0.011294897 0.03546942 0.03045602
0003b0 55 65 83 b9 8e 4a 6d 3d cc 41 21 bd 17 cb 3f bc
       -0.00025061765 0.05793243 -0.03936939 -0.011706135
0003c0 bb 6d 4d 3d ba ff 0a bd 3f 0c 86 3b 98 da c2 3c
       0.050153475 -0.033935286 0.0040908153 0.023785874
0003d0 41 a9 cc 3b a9 75 f4 bc e4 e9 ca 3c 99 e1 84 3c
       0.0062457626 -0.029841261 0.02476973 0.016220855
0003e0 0c 58 47 3d ea 0a 30 3c 8f ae 76 3d 53 19 a6 3b
       0.048667952 0.01074479 0.060225066 0.005068937
0003f0 2c 61 2d 3d d5 77 52 3c fe bb bf bc 7b 17 52 bd
       0.042329 0.012845953 -0.023405071 -0.051291924

fc1.bias f4 [128]
000000 2e 06 4a 3d ab 8b 43 3d 74 51 64 3d 19 e2 b4 3c
       0.0493223 0.04774062 0.055741742 0.022080468
000010 47 08 58 bd d7 bf e8 bc a3 d0 9e 3a e4 0f b7 bc
       -0.05274227 -0.028411789 0.0012116622 -0.022346444
000020 0e f1 23 bd 0e bc 05 bd 2b 99 2a 3d 35 39 6c 3c
       -0.04002481 -0.032650046 0.04164998 0.014417936
000030 f6 23 29 bb ed ad 30 bd 40 d2 49 bd 26 9e 7f 3d
       -0.0025808788 -0.04313462 -0.049272776 0.06240668
000040 c3 d9 7f bd a5 95 80 bd 3d dd 0e 3d 7d 05 3b bd
       -0.062463533 -0.062785424 0.034878958 -0.04565953
000050 e2 0e b5 bb 1a cb 56 3d db db 3d 3d d2 64 d0 bc
       -0.005525456 0.052439786 0.04635225 -0.0254387
000060 23 31 3e bd 4a 71 0a bd 4b 81 c5 3c 9f 78 ba 3b
       -0.04643358 -0.033799447 0.024109503 0.0056906487
000070 aa 43 f6 3c 37 3f 67 bd 56 06 e0 3c f9 12 30 3d
       0.030061562 -0.05645677 0.027346771 0.042986844
000080 7d 32 29 bd b0 d8 68 3d 64 17 49 3c 77 05 c8 3c
       -0.041307915 0.056847274 0.012273643 0.024416668
000090 22 4e 12 bb 3e 55 29 3d 11 5f 62 bb 81 1b 72 3d
       -0.0022324403 0.04134106 -0.0034541527 0.05910826
0000a0 9e 99 75 3c 35 02 50 bd c2 7b 81 3d a2 0f 17 bd
       0.0149902385 -0.050783355 0.06322433 -0.036880143
0000b0 a6 b8 f9 3b 6b 48 cc 3c 76 e6 1b 3d 18 ab c7 b9
       0.0076208888 0.024936875 0.03806158 -0.00038083713
0000c0 a1 a2 47 bd eb ab 52 3d 76 6a fb bc 09 ca 3c 3d
       -0.04873908 0.051433485 -0.030690413 0.046091113
0000d0 4e 8d a3 3c 91 09 25 bd ff 06 ef bc 5f 2c 33 bd
       0.01996484 -0.040292326 -0.02917814 -0.043743487
0000e0 d5 7e 0d bd 4a fc df 3a 2d 1a 26 3d 55 f5 b8 bc
       -0.034544785 0.0017088738 0.040552307 -0.02257792
0000f0 a9 15 94 3c 95 f6 09 3d 33 1e 71 3d a9 5f 9f bb
       0.018076735 0.033682425 0.05886669 -0.0048636985
000100 58 c4 59 bd a7 85 ee bb fc ea 11 bd b8 1c 8c bc
       -0.053165764 -0.007279116 -0.03562449 -0.017103538
000110 04 30 e6 bc c7 2a 04 bd 21 4e e5 ba eb 34 ad bc
       -0.028099068 -0.03226736 -0.0017494598 -0.021143397
000120 02 38 b6 bc ef d7 e8 bc 62 25 6a 3d 6a 2a 51 3c
       -0.022243503 -0.028423278 0.057164557 0.01276646
000130 a5 56 89 bc b2 47 6b bd 57 a0 2d 3c cf 81 00 bd
       -0.016764948 -0.05744142 0.01059731 -0.031373795
000140 c7 6f 7f 3d 9c 90 54 3d e9 44 15 3d ac 0b 3b 3d
       0.06236246 0.051895723 0.03644267 0.045665428
000150 35 50 b2 3c c3 19 07 bd 4f 83 51 bd 53 25 84 3c
       0.021766761 -0.032983553 -0.051150616 0.016131079
000160 f5 3f c1 bb 1f f5 72 3c 94 b6 1e bd f7 0e 0b bb
       -0.005897517 0.014828949 -0.03874834 -0.0021218637
000170 e0 46 f4 3c 5d 5e 0c 3b d4 12 70 3d e1 d5 45 bd
       0.029818952 0.002141855 0.058611706 -0.048299674
000180 37 b6 fc 3c df d0 73 bc 5e 0f d5 3c f5 88 66 3d
       0.030848606 -0.014881342 0.026008304 0.056282956
000190 62 54 af bc 4e 63 76 3d 02 12 68 bd 18 29 1c bd
       -0.021402542 0.060153298 -0.0566578 -0.038125128
0001a0 02 3d aa 3c 5a 42 d2 3c a8 68 7c 3d 2a e5 d7 3b
       0.020781044 0.025666405 0.061623245 0.006588598
0001b0 b4 ea de bc c5 d4 6d bd de 56 2e 3c f7 e4 9e b9
       -0.027211525 -0.05806424 0.010640828 -0.000303067
0001c0 d9 bc 25 bd 12 86 14 bd f8 53 2f 3d 41 c9 c5 bb
       -0.040463302 -0.036260672 0.04280469 -0.006035954
0001d0 f5 a6 85 bc 3a 8a ed 39 b8 94 0c bd b2 50 47 3d
       -0.016314963 0.0004530715 -0.034321517 0.04866094
0001e0 00 b5 41 3b 54 58 1a bd 2e 07 d2 3b 34 1b 1b 3d
       0.0029557347 -0.037681893 0.0064095473 0.03786774
0001f0 b5 d6 9a bc 95 b5 6b bd 65 7f 02 bb bc a6 3c bb
       -0.018901208 -0.057546217 -0.001991236 -0.0028785905

fc2.weight f4 [64, 128]
000000 76 dd 94 bb 66 84 c6 3b 9e 4f 1c bd 95 35 c5 3b
       -0.0045430018 0.0060582636 -0.038161866 0.0060183504
000010 fb 88 94 3c 1f dc 08 3d 71 bc 69 3c 3c 59 70 3d
       0.018131724 0.03341305 0.014266119 0.05867885
000020 89 87 64 3d 7c f6 ef bc d6 5e ad bb ac b0 e7 3c
       0.05579332 -0.029292338 -0.0052908463 0.028282486
000030 62 ff 93 bd cd f6 74 3d bf 10 1d 3d a9 ac 2a 3d
       -0.07226445 0.05980568 0.03834605 0.041668568
000040 97 65 fe bc e3 24 9b 3d 2b 90 b6 bc ac fb 69 bd
       -0.031054301 0.07575395 -0.022285542 -0.05712478
000050 45 1e be 3b 68 56 88 3c e0 46 9d bd a3 86 c8 3c
       0.0058019483 0.016642764 -0.07679534 0.024478262
000060 37 30 f2 3c 5a 82 1a bc 89 80 90 3d e2 cd e3 bc
       0.029564006 -0.009430492 0.07055766 -0.027808134
000070 c3 d9 6a bd 1d 7a ab 3d 01 b8 9f bd f2 34 b4 bd
       -0.05733658 0.08372901 -0.07798768 -0.08799161
000080 c0 62 47 bd 86 ec 9e 3d 36 01 9a 3d 43 8f c9 bc
       -0.04867816 0.07759957 0.07519762 -0.024604445
000090 f7 03 bf 3c e7 5e 7b 3d 03 52 a0 3d ba 47 b5 3d
       0.02331732 0.061369803 0.078281425 0.088515714
0000a0 2f 6f 38 bd 5d 72 a8 bc 72 3d 34 bd dc de 14 bd
       -0.045027908 -0.020562345 -0.04400391 -0.036345348
0000b0 fa e9 98 bd 8b 82 10 3d 03 b7 25 bd 3c 26 cf 3b
       -0.074665025 0.035280745 -0.040457737 0.0063216966
0000c0 bf 5d 07 3c 97 e5 31 3d 41 83 91 bc 5f 94 93 bd
       0.008262097 0.043431845 -0.017762782 -0.07206034
0000d0 4e c5 19 bc 56 e1 a3 bd 6b 07 15 bd 0c 9d 60 bd
       -0.00938542 -0.08001964 -0.036384027 -0.05483727
0000e0 32 02 3e bd 12 fc 0d 3d 7d e9 d9 bc 9f 73 a0 3d
       -0.046388812 0.03466422 -0.026600594 0.07834553
0000f0 e0 7d 90 3c 55 1b 12 3c ac e6 d0 bc b3 45 81 3d
       0.017638147 0.008917649 -0.025500618 0.06312122
000100 3a 31 f9 3c 42 1b b1 bd 8c 53 11 3d c5 da 60 bc
       0.03041898 -0.08647777 0.035480067 -0.013724034
000110 9a e7 52 ba cb 0a 4e bd 2f be 40 bd c6 ba 02 bc
       -0.00080453756 -0.05030326 -0.047056373 -0.007979101
000120 00 4b a7 bd 66 03 17 bd 6d 39 0e 3d 6d 11 5d 3b
       -0.08168602 -0.036868475 0.034722734 0.003373231
000130 ab f8 03 bd 7b 68 8e bc 40 31 42 3d 95 95 25 bc
       -0.03221957 -0.017383805 0.04741025 -0.010106464
000140 f8 22 60 3c 51 34 99 bd 15 5d 52 3d fb 4c 8d bd
       0.013680212 -0.07480682 0.0513583 -0.068994485
000150 2f d9 84 3d a8 40 52 3c cd a0 6c 3c 33 1c 92 3d
       0.06486737 0.012832798 0.014442635 0.07134285
000160 3e 42 82 bb e0 27 06 bd 07 4c 25 3d ef d7 9f 3d
       -0.003975182 -0.03275287 0.04035571 0.07804858
000170 b0 b0 ed bc 1b a7 cc b9 74 31 db 3c 59 d4 1f bc
       -0.029014915 -0.00039034415 0.02675698 -0.0097552175
000180 4c c8 c7 3c 7d 7f 22 3c 2c ad 98 3b b9 fa a0 bd
       0.024387501 0.009918091 0.0046593156 -0.078603216
000190 07 7d fa 3c c5 a6 92 bc a5 3f 89 3d 6b a2 ad 3c
       0.030577196 -0.017901788 0.06701592 0.021195611
0001a0 6c 06 b6 bc c2 0a 12 bd ce 93 77 bc 60 80 ae 3d
       -0.022219859 -0.03565479 -0.015110923 0.08520579
0001b0 dc ec 98 3c 3f 6d 3d 3c 57 cf 47 3d ef 48 95 bc
       0.01866763 0.011561691 0.04878172 -0.018223254
0001c0 d0 0a 96 bd c1 ca 87 bb fd 1f c7 3c 6f 48 5d 3d
       -0.07326281 -0.004144043 0.024307245 0.054024156
0001d0 9e bc de bc 85 1c 7d bd b2 34 48 3d 60 ab 96 3d
       -0.027189549 -0.061794776 0.04887838 0.07356906
0001e0 7d 38 fa bc a8 5b 21 bd e0 cd 02 bc 41 3e 26 bd
       -0.030544514 -0.03939405 -0.007983655 -0.040586714
0001f0 f9 51 36 3d db fe 0d bd 9c d3 d0 3a f8 43 31 bd
       0.04451177 -0.034666877 0.0015932205 -0.04327771
000200 f2 13 1a 3a 34 d4 e3 3c a9 23 a0 bd 64 40 52 3d
       0.0005877606 0.027811147 -0.07819302 0.05133094
000210 f2 f9 a9 bd 36 bb 2e ba 28 39 22 bd 19 b9 30 3d
       -0.082996264 -0.000666547 -0.03960529 0.043145273
000220 6c 03 51 bd b6 56 a0 bd ee 86 2e 3d 87 b3 b2 3d
       -0.051028654 -0.07829039 0.042609148 0.087256484
000230 b5 ac 81 3d 22 45 93 3d 8a a3 34 bd 58 df 18 bd
       0.063317694 0.071909204 -0.044101276 -0.037322372
000240 0b 8f ae bd d9 5f d8 3c 03 bc d2 bc 54 47 ad 3d
       -0.08523377 0.026412891 -0.025724417 0.084608704
000250 f2 6e 5d bd cb d2 15 3d b2 33 57 bd 77 db 74 3d
       -0.054060884 0.03657798 -0.052539535 0.05977961
000260 f1 56 8c bd 54 0d 7f 3d a2 2d 90 bd 44 6c b5 3d
       -0.0685252 0.06226857 -0.07039954 0.08858541
000270 a2 70 af bd b9 13 a6 bd 8c 3b 7b bd 14 b0 9c ba
       -0.08566405 -0.081092305 -0.061336085 -0.0011954331
000280 3f 00 90 bd c8 60 98 bc 44 5f 5c 3d 0c 27 39 bd
       -0.07031297 -0.018600836 0.05380179 -0.045203254
000290 20 48 90 3d ad 18 18 3d c7 ac 34 bd cb 1e 32 3d
       0.07045007 0.037132908 -0.044110086 0.043486398
0002a0 69 fb 80 bd 5b 86 97 3d 3d 90 9d 3d b7 44 77 3d
       -0.06297953 0.07398673 0.07693527 0.060368266
0002b0 97 45 4a 3d a4 e6 fc bc 11 46 d3 3b 17 5e cd bc
       0.049382772 -0.030871697 0.0064475616 -0.02506928
0002c0 40 bf 19 bc 2a 38 fb bc 42 d3 b8 3d 50 e5 73 3b
       -0.009383976 -0.03066643 0.09024669 0.0037215538
0002d0 d9 bc 90 3c df ab 87 3d 01 3c 52 bb cb 97 a8 3d
       0.017668175 0.06624579 -0.0032079222 0.08232077
0002e0 36 c6 92 3d 6c e4 80 3d 2c a1 8d bc c5 cf 3e 3d
       0.07166712 0.06293568 -0.017288767 0.046584863
0002f0 66 9f 8a bd 69 0e a9 bd a7 c7 a5 3d 2a 5c 57 3d
       -0.06768684 -0.08254702 0.08094721 0.05257813
000300 c3 d0 a4 3d 9a ba 8b bc 9d 8e 3f bd eb 13 ec 3b
       0.08047631 -0.017056752 -0.046766866 0.007204523
000310 dd 0a ae 3d 02 01 3c 3d b1 f5 87 3d df 70 e3 bc
       0.08498166 0.0458994 0.06638659 -0.027763782
000320 0b e5 ec bc b8 93 84 3d 5d 15 bb bc 4c 25 52 bc
       -0.02891781 0.064734876 -0.022837335 -0.012826275
000330 29 b3 e2 bc 7c fb 87 bb 1b ea 0f 3d 18 56 52 3d
       -0.02767332 -0.0041498523 0.03513537 0.051351637
000340 14 f0 bd 3d 14 78 33 bd 07 8a a8 3d a1 7d a9 3d
       0.09274307 -0.043815687 0.082294516 0.08275915
000350 a8 84 f5 3a fc f6 3c 3d ec 5e 7f 3d 4e 54 60 3c
       0.0018731551 0.04613398 0.062346384 0.013691975
000360 a3 bd 1d 3d a2 67 aa 3c d5 9e dc 3c 38 95 8d bd
       0.03851093 0.02080137 0.026931206 -0.06913227
000370 d6 06 88 3c b8 f0 57 bd ed ae b3 3d 29 89 b1 bb
       0.016604822 -0.0527198 0.08773599 -0.005417962
000380 ef bf a3 bc 14 78 e4 bc 87 54 01 bb 8c 1b a4 3d
       -0.019988982 -0.027889289 -0.001973422 0.08013067
000390 be 95 5e 3d 6b f0 87 bd d8 0c 56 bd 93 2d df 3b
       0.054342024 -0.06637653 -0.052258343 0.006810853
0003a0 8a dc ad bd d6 a6 7c 3d 53 b2 22 bd 15 84 52 bd
       -0.0848933 0.061682545 -0.039720844 -0.051395494
0003b0 36 e7 71 bd 7a ea 34 3c b2 93 73 bd 7a 2b 94 bc
       -0.05905839 0.011042232 -0.059467025 -0.018087137
0003c0 6d 45 f9 bc fe 2e ab bd 3a b1 06 bd da 58 0d bd
       -0.030428613 -0.083585724 -0.03288386 -0.034508564
0003d0 ed 68 6a 3c 83 49 09 bd 0b a9 54 bc b9 3f 09 3c
       0.014307243 -0.033517372 -0.012979756 0.008377009
0003e0 c0 84 97 3d 51 e0 4a bd 73 a0 ee 3c 0c 6a cd bb
       0.07398367 -0.04953033 0.029129243 -0.0062687453
0003f0 79 ab b1 bd 05 37 23 3d 44 ae cd bb 40 6e 70 3d
       -0.08675284 0.039847393 -0.0062768776 0.058698893

fc2.bias f4 [64]
000000 91 52 42 3d 7c 00 95 3c 87 ac 74 bc 50 fb 40 bc
       0.047442023 0.018188708 -0.014933712 -0.011778668
000010 0b 04 a3 3d d4 df 54 bd 41 bc 82 3c d7 61 ba 3c
       0.079597555 -0.05197127 0.015958907 0.022751732
000020 e3 33 19 bd 13 2d 01 bd 2b 19 2e bc 8c eb b3 3d
       -0.037403 -0.031537127 -0.010626118 0.087851614
000030 68 ff 81 3d 66 df 0a 3d 72 b7 1b bd 68 07 03 3c
       0.06347543 0.033904456 -0.038016744 0.007997371
000040 fe 1c 85 3d 71 2a 48 3d 17 46 1a 3c 2f 6b e2 3c
       0.064996704 0.0488686 0.009416125 0.027639
000050 09 8f 03 3d 88 85 d5 3c fe 76 91 3d ca 80 21 3d
       0.03211883 0.02606465 0.07102774 0.039429463
000060 01 cc 91 3d b3 f9 a0 3d 3c 32 36 bd df 35 1e 3d
       0.07118989 0.07860126 -0.0444815 0.038625594
000070 df b4 42 bd 59 66 88 bd d9 e4 9a bb fa 7d a5 bd
       -0.047535773 -0.06660146 -0.004726988 -0.08080669
000080 8f b7 ae 3d c5 61 b1 3c e9 eb 80 3c 9f c7 30 bd
       0.08531105 0.021653065 0.01573749 -0.043159124
000090 09 b1 29 3c 4d cc 20 3d bf 1a 9b bd b0 6d ee bc
       0.01035715 0.039257336 -0.07573461 -0.029105037
0000a0 37 e5 86 3a 88 8d 57 3d 5a a9 92 3d 8b 22 3a bd
       0.00102917 0.05262521 0.071612075 -0.0454431
0000b0 63 d5 b0 3d a4 b9 aa 3d af cc 0c 3d a9 e9 84 3d
       0.0863445 0.083361894 0.03437489 0.0648988
0000c0 9c c8 8f bd ae 6c 85 3d 17 60 a2 3c 3e da b6 3d
       -0.07020685 0.0651487 0.01982121 0.08928345
0000d0 bb 40 63 3b 46 36 30 bd b5 c2 6b bd ad a3 c1 bc
       0.0034676034 -0.04302051 -0.057558734 -0.023637617
0000e0 f0 25 ac 3d fd 18 38 3d 81 ea 48 bc c3 84 e1 3c
       0.084056735 0.044945706 -0.012262941 0.027529126
0000f0 3c cd cd 3d e1 9f b8 bc 0b 81 de 3c d1 e8 c7 3b
       0.10048911 -0.022537174 0.027161142 0.006100752

fc3.weight f4 [10, 64]
000000 89 1c fc bd 50 aa 2c bb e5 7f a0 bb ef 70 bf bd
       -0.1231013 -0.0026346631 -0.0048980587 -0.09347712
000010 57 49 f7 bd 70 91 de 3a 00 1d 0a bd 5d 65 49 bd
       -0.12074535 0.00169806 -0.033719063 -0.049168933
000020 75 68 3d bd 07 1d b5 bd 17 af e4 3d fc 63 d6 3d
       -0.046242196 -0.08843427 0.11166208 0.10468289
000030 74 52 87 bd 51 66 43 bd 7f ea d9 bd ea 4b e3 3d
       -0.066075236 -0.047705 -0.1064043 0.11098464
000040 79 29 b0 3d 03 52 f8 3d 60 ec c8 bc d3 21 ae 3d
       0.0860166 0.121250175 -0.024526775 0.08502545
000050 9e 10 93 bd 7e 7d 71 3d 12 2d a2 3c ba 7e 7f bc
       -0.07180904 0.05895757 0.019796882 -0.015594179
000060 de 7b eb bd 32 a1 8c 3d 16 07 d6 3d fe 60 dc 3d
       -0.11498235 0.06866683 0.1045057 0.10760687
000070 1f 59 87 3c 18 04 59 bd 56 7e dc bc 84 85 d5 3d
       0.016521988 -0.05298242 -0.02691571 0.10425857
000080 ea f4 da bc 1e 9b 8b bd 5c 91 0c bc 7f 6f fd 3b
       -0.026728112 -0.06816696 -0.008579578 0.0077342386
000090 cb 52 7f bd 84 dc 91 3c 00 f0 40 bc 41 74 af 3b
       -0.062334817 0.017805345 -0.01177597 0.0053544347
0000a0 58 5f d1 bd e7 f9 65 bd 6f 1d b3 3b 2e e8 ba bd
       -0.102232635 -0.05614653 0.0054661552 -0.09126316
0000b0 1e 6a 00 be fe 2a f5 bd 8b e6 b0 3d d5 13 15 bd
       -0.1254048 -0.11971091 0.086377226 -0.036395866
0000c0 b0 db 04 bc 4b 23 b0 bd 53 c3 a8 3d f6 14 b6 3d
       -0.008109018 -0.086004816 0.0824038 0.08890717
0000d0 cd 3b e3 3c 6a 88 a1 bd d6 43 24 3d a7 73 85 bc
       0.027738476 -0.07887347 0.040103756 -0.016290499
0000e0 7b 72 4a bd 04 c2 28 bd 9f 05 96 bd 5f 22 cc bd
       -0.049425583 -0.041200653 -0.07325291 -0.09967493
0000f0 4a c4 68 bd bf ad c3 bb 63 d8 a9 bd 76 3c 8c 3d
       -0.05682782 -0.00597164 -0.082932256 0.068474695
000100 f6 b3 80 3d d9 53 56 bc 21 8b 04 3d 57 e7 c3 bd
       0.06284325 -0.013081514 0.032359246 -0.09565609
000110 72 36 7f 3d ef 3d b9 3d 5c ae 91 bd 9f 6f ce 3d
       0.062307782 0.09045016 -0.071133345 0.10079884
000120 5d c5 99 3d a4 41 04 be f4 9c f9 bd 10 f6 8b bd
       0.07508347 -0.12915665 -0.121881396 -0.06834042
000130 d2 00 0a bd 70 20 21 bd ac 6f 5f 3d 6d 6e 7b 3d
       -0.03369219 -0.039337575 0.054549858 0.061384607
000140 3e 40 6a bd 71 32 db 3d 7a 72 ea bd 32 b9 32 bd
       -0.057190172 0.1070298 -0.11447616 -0.043633647
000150 1a 40 f9 bd 51 75 ab bd 91 b9 fc bd fc bf a0 bc
       -0.121704295 -0.08371986 -0.123400815 -0.019622795
000160 c9 7f e2 3d 5e ec 9f bc bd c6 a5 3d 65 23 e4 bc
       0.11059529 -0.019521888 0.08094547 -0.027848909
000170 fb 8d a6 bd f2 81 8c bd 88 1e 84 bd f5 de bb bd
       -0.081325494 -0.068607226 -0.06451136 -0.09173385
000180 eb e3 c3 3d 93 6f 8e bd b0 59 3e 3c ee d1 5c 3d
       0.09564956 -0.06954875 0.011618063 0.053911142
000190 46 8d dc bc d9 e3 f4 bd fc e7 8a bd 7e f6 73 bb
       -0.026922833 -0.11957521 -0.06782529 -0.0037225778
0001a0 8a 9b 8d 3d 25 cb 4d 3d 97 15 9c bd b1 a8 83 3c
       0.06914432 0.05024256 -0.076213054 0.01607165
0001b0 69 9a 9f bd ca f6 f4 bd 2f 89 88 bc 0d 69 0d 3c
       -0.07793123 -0.11961134 -0.016666977 0.008631003
0001c0 f0 32 71 bd 6e 46 0f bc 88 06 ed 3d 74 23 0c bd
       -0.05888647 -0.008744819 0.11573511 -0.0342135
0001d0 33 87 f3 bc 85 ef bc 3d 06 de c8 bd bf 33 10 bd
       -0.029727554 0.09225372 -0.098079726 -0.0352056
0001e0 74 a5 4b bd 63 37 24 bd 69 d4 15 3b 42 8e 23 3d
       -0.049718335 -0.040091883 0.0022862202 0.03993059
0001f0 4b a7 b4 3c 54 1e c1 bd 70 fe c2 3d ae b8 48 3d
       0.022052428 -0.09429613 0.09521186 0.04900425
000200 bf 3b 2f bc eb 05 6b bd 49 9d 1e bd 33 52 7b 3d
       -0.010695397 -0.05737869 -0.038724218 0.06135769
000210 1e 58 98 3d 72 52 b7 3d 06 56 96 ba 54 e2 84 3d
       0.07438682 0.08951272 -0.0011469729 0.06488481
000220 85 af ed bc ab 13 51 bd 66 2d 85 bd 1e 3f f7 3b
       -0.029014358 -0.051044147 -0.065028 0.007545366
000230 a7 91 06 bd 32 4e 80 bd 0f fe 39 3d 59 4c 1e bd
       -0.03285375 -0.062649146 0.045408305 -0.03864703
000240 a9 b1 aa bd 81 ec 62 bd 22 ec 97 3d 70 99 e5 bd
       -0.08334667 -0.05540133 0.07418086 -0.112109065
000250 19 2e fe 3d e7 23 4c 3c cc 52 d0 bd 5e d3 5d 3d
       0.12411136 0.012459732 -0.10172042 0.054156654
000260 fa 4d ec 3d 9e b4 ad 3d 1e fd 8f 3d 9c a3 e0 bd
       0.1153831 0.084817156 0.070307 -0.10968706
000270 b0 b1 c4 bc f8 d2 3d 3d 9a f1 18 3d 31 b7 21 3d
       -0.02401051 0.046343774 0.037339784 0.039481346
000280 76 ce 58 bd 0c 90 e5 3d a7 22 9b 3d 1c 1a 55 bd
       -0.05293127 0.112091154 0.07574969 -0.052026853
000290 20 13 9c 3c 06 e9 f3 3d 38 7d af bd 97 fc 70 3d
       0.019052088 0.1190968 -0.085688055 0.05883464
0002a0 fb be ce 3d d0 90 3d 3d 7a ba a9 bd 08 a6 42 b8
       0.100950204 0.046280682 -0.08287521 -4.6407833e-05
0002b0 92 69 89 3d d2 4c c3 bd 36 75 ea bd c0 0c b2 3c
       0.06709589 -0.09536137 -0.114481375 0.021734595
0002c0 68 25 fe 3c 18 ce 66 bd 7f fb 9f 3c 6c 80 e5 bd
       0.031023696 -0.05634889 0.019529102 -0.11206135
0002d0 1e b8 d5 bd 85 77 38 3d 75 5b 8f 3d 0e 98 ca bd
       -0.10435508 0.045035858 0.06999866 -0.098922834
0002e0 09 4b f3 3d 91 94 ec 3d 47 6d 0c bd 4e 71 9e 3d
       0.11879546 0.11551774 -0.034283902 0.07736455
0002f0 11 7e 4d 3d 67 12 2f bd 55 51 f8 3d 1f d9 c8 3d
       0.050169054 -0.04274216 0.12124888 0.098070376
000300 a2 f6 26 3d 85 c6 01 3e 24 8b d6 bd e1 df c2 3d
       0.04076255 0.12673385 -0.10475758 0.09515358
000310 1f 90 84 3d 55 e4 5a 3d b5 3e c3 3d 0d 23 df 3d
       0.064728014 0.05344041 0.09533445 0.10895357
000320 cd 6b c4 bd 00 b2 3f bd 90 bd 91 bd 72 c3 6a bb
       -0.09590874 -0.046800613 -0.07116234 -0.003582206
000330 54 5c 27 bd 08 21 f2 3d 74 31 2e bd 92 49 90 3d
       -0.040859535 0.118227065 -0.04252763 0.070452824
000340 5e 3c 47 bd 47 18 04 3e 64 b3 35 bd 0b f5 92 3d
       -0.048641555 0.12899886 -0.044360533 0.071756445
000350 1b 6f 3c b9 ec 2e f6 3d fa fa 75 bd 1d 74 04 3e
       -0.00017970467 0.120206684 -0.060053803 0.12934919
000360 cb f1 dd 3d d4 dc 9a 3d 3e ba da bd 90 ec 72 bd
       0.10837134 0.07561651 -0.10680054 -0.059307635
000370 36 80 2b 3d f0 e8 2d 3d 20 a4 90 bd d5 38 fc 3d
       0.04187032 0.042458475 -0.07062554 0.12315527
000380 33 82 c0 bc 98 d3 fe bd 14 43 93 3c f7 5f 93 3d
       -0.023499584 -0.12442702 0.017976321 0.07196038
000390 7c c5 0f 3d f2 d0 06 3e c2 b6 e4 bd 5e 0e 6a 3d
       0.035100445 0.13165644 -0.11167671 0.057142608
0003a0 7e c7 5e 3d e2 39 27 3d 73 9e a6 3d 1d 3f 42 bd
       0.05438947 0.040826686 0.081356905 -0.04742347
0003b0 33 7a a2 bd 2b 31 da 3d 42 d5 49 bd 47 c2 aa bd
       -0.07933464 0.10653909 -0.049275644 -0.08337837
0003c0 d0 5c 95 bc 42 7c 62 bb 00 a3 15 3d d1 8d 0a 3e
       -0.018232733 -0.0034558927 0.036532402 0.13530661
0003d0 b1 0e f0 bc 34 85 a4 bd 34 71 8d bc 97 5b 32 3d
       -0.02930388 -0.08033219 -0.017265894 0.043544378
0003e0 75 96 bc 3d 93 17 ae bd 8a 43 06 bd cd fe 9c 3c
       0.09208385 -0.0850059 -0.032779254 0.019164467
0003f0 7f 15 ea 3d 7d 03 86 3c f6 a8 4e bc 5f 64 11 3d
       0.11429881 0.016359085 -0.012613526 0.035496112

fc3.bias f4 [10]
000000 1c 00 86 3d 9e b5 d9 3d ea 4d 5d bd 61 7f b6 bd
       0.065429896 0.10630344 -0.054029383 -0.08911014
000010 3d c0 92 bc ef 60 04 bd 01 15 ae 3d 86 90 23 3d
       -0.017913932 -0.032319006 0.085001 0.03993275
000020 ed 1b ed 3c 19 68 39 3d
       0.02894398 0.04526529
